datasets/DQN_test/dqn-model1.pt (torch, 262632 bytes, 4 tensors)

weight f4 [128, 500]
00000000: 038a 7a3c de62 68be d650 32be ad3b e2bd
00000010: dd2b fa3e c67f 0d3d 393a d63e 2887 aa3e
00000020: 13ca 41be ca28 213e 5fa8 4c3c 3f7b 6e3e
00000030: 6b83 b03e 7002 e73d aa1f c63e 5143 8cba
00000040: bb14 a2be ce6b e93d cc27 45be 3e7e 823b
00000050: 7543 1ebd 99a0 b73d 8d6b 45bc a7da 9b3d
00000060: 5e16 a03e 5713 dd3c 1c60 b63e 4a53 8a3e
00000070: 107c c73d e927 573e 559c 25bd 78f4 743e
00000080: aa68 813e b930 773e 9a8d 763e a090 76bb
00000090: bbe8 97be 0589 d13c 9f63 e0bd 399f 913d
000000a0: f2c8 c839 3905 953e c6cc 5f3e 228f 803e
000000b0: 0a32 913e 8c7d 863a adb9 8b3e c230 5a3e
000000c0: 76b9 283e 1707 bf3e 0d32 2ebd 7c37 6d3e
000000d0: bf9f 533e 3cad d63d 951b bb3e af86 11bb
000000e0: 33d6 71be de96 3ebe 6d2b 963d b67b dd3d
000000f0: aefd b13c 1a0c a23e ea4a 3e3e 25e3 863e
00000100: ccb5 8a3e f264 63bc 7a3e 853e c247 3c3e
00000110: e780 f03d b666 693e 6722 d13c cfce 8a3e
00000120: 2ecd 993e 683d 3e3e b1ec 623e 3551 1ebd
00000130: 3691 5bbe aa75 6cbe 1ab1 043d 7719 0cbd
00000140: 4986 783c 29b2 b13e 0f3a 373e 3a9f 8b3e
00000150: 0f5f d73d 22e1 f6bc 363a 103e fbef 6a3c
00000160: 1c1f 7f3e b0b8 723e 2856 fa3b 2198 803e
00000170: a6cf b13d a237 393e e806 803e b3cc 99bc
00000180: 92a1 543b f187 8ebe 0b1e 443c 9faf 07bd
00000190: e7c9 99bc 3a9c 3b3e 8f7c c0bc 817e 033e
000001a0: 5134 ba3e 2abe 753b 88cf bc3e 2f99 9d3e
000001b0: 1cc5 02be a3f8 0c3e 912a 063d 9d5b e63d
000001c0: fedc 983e 4862 593e 527e a43e 4276 fd3c
000001d0: 227a 8dbe dffa da3d 8326 45be 0571 b63d
000001e0: 1f1e 953c a7f1 323e d0e3 3e3d 1e3b fb3d
000001f0: b1e7 c93e eb8f 02bc 7722 973e 5430 463e
00000200: 0432 9a3c 9552 813e 9c33 aa3c 7f8d 023e
00000210: 0df8 523e 7620 033e 8e99 a43e 98db 51bb
00000220: 58d4 85be 01c8 0d3d c841 f3bd 0626 6eba
00000230: bc7b 213c 5c0c 8f3e 43f9 1c3e 6bf6 2d3e
00000240: 416d 9e3e 8318 a33c 4962 ab3e d4a9 673e
00000250: aaa7 fa3d cd69 803e 9b55 1f3d 5a98 7d3e
00000260: 22c5 313e 5268 6f3d 8ca0 a73e 9640 d53c
00000270: 275e 65be 8b84 5fbe 1469 87bd 2ed4 b1bd
00000280: 5fa7 653c f8f4 8e3e 7934 053e 7e50 823e
00000290: 0b30 613e 441b 8abc 22aa b63e ee52 3d3e
000002a0: 7785 423e 40d2 483e 965b 00bd 4a60 563e
000002b0: 02f6 6a3e 5138 d13d b277 723e 06bf 303d
000002c0: ef5b 66be 1d39 68be cbde 4fbd 7cce 07be
000002d0: cd9a 073c a09f ba3e 9495 413e 0d7e a13e
000002e0: cabd 523e ec71 1ebd e00d 8d3e a843 2f3e
000002f0: eb52 0e3e 00c0 923e 542f 163d 6a47 823e
00000300: d55e 0d3e 5793 263e b6b6 273e 09fd 01bd
00000310: 10bf 4fbe 638a 6dbe 7b1a f3bb 43f3 bebd
00000320: e837 17bd 6b17 003e 49a0 dc3d cda0 ef3d
00000330: 073a b53e 83de d7bc 552f aa3e 732e a33e
00000340: 4563 08bc f7f3 333e 3d89 27bc ec87 2b3d
00000350: 9945 963e 955f d73e 585f ae3e e47a 99bb
00000360: 4a24 8bbe 5f64 a93d c844 30be 0176 b23d
00000370: e164 c23c 6a0a 3e3e 3620 943d ea72 a33d
00000380: af8b f63e 8019 ec3c d214 8c3e 010a 873e
00000390: 6ea2 603d ce0a 3b3e 4a57 1d3d e639 dc3d
000003a0: 544c ae3e d3c5 663e fc91 953e 3b10 06bd
000003b0: 386b 6fbe 1741 f83d cef3 3ebe 14f3 923d
000003c0: 72c9 34bc 747f 793e 9708 c53d 6d3a 243e
000003d0: 1393 be3e 0549 243c 2108 bc3e 047f 883e
000003e0: aa6f a43d 85fc 733e 6a52 88bc 16a7 033e
000003f0: 2b1d 753e 4cbf 293e ae3a 923e 39f3 a9bb
0.015291694 -0.22693965 -0.17413649 -0.110465385 0.4886159 0.034545682 0.41841295 0.3330624
-0.18924741 0.15738216 0.012491315 0.23289202 0.34475264 0.11279762 0.38696033 -0.0010701214
-0.3165644 0.11397515 -0.19253463 0.0039823344 -0.03863855 0.089661784 -0.012049568 0.07610064
0.31267065 0.026986761 0.356202 0.2701667 0.0974046 0.21011318 -0.040432293 0.23921382
0.25275165 0.2413968 0.24077454 -0.0037622824 -0.29669747 0.025578031 -0.10956501 0.071104474
0.0003829669 0.29105547 0.21855459 0.25109202 0.2835849 0.0010260805 0.27290097 0.21307662
0.16476998 0.37310097 -0.0425282 0.23165697 0.20666407 0.104822606 0.3654448 -0.0022205522
-0.23616867 -0.18612239 0.073325016 0.108146116 0.02172741 0.31649858 0.18583265 0.26345173
0.27091825 -0.013879048 0.26024228 0.18386748 0.11743336 0.22793087 0.0255291 0.27110907
0.30039352 0.18578112 0.22160603 -0.038651664 -0.21442112 -0.2309176 0.03239546 -0.034203973
0.015168735 0.34706238 0.17893241 0.27269918 0.10516178 -0.030136649 0.14084706 0.014339442
0.24914211 0.23703265 0.007639665 0.25116065 0.08682184 0.18087628 0.2500527 -0.018774366
0.0032444936 -0.2783809 0.011970053 -0.03312647 -0.018773032 0.18321314 -0.023496894 0.12841226
0.3636804 0.003749738 0.36877084 0.30780932 -0.12770504 0.13766722 0.03275544 0.112479426
0.29856104 0.21228898 0.32127625 0.030940179 -0.27632242 0.10692381 -0.19252972 0.089082755
0.01820284 0.17474996 0.046603978 0.12267135 0.3943458 -0.007968883 0.29518482 0.19354373
0.018822677 0.25258318 0.020776562 0.12749289 0.20602436 0.12805352 0.32148403 -0.0032021757
-0.26138568 0.034614567 -0.11877781 -0.00090846454 0.009856161 0.27939117 0.15329461 0.16988532
0.3094273 0.019909149 0.33473423 0.22623378 0.12239011 0.2508072 0.0389 0.24765149
0.17360356 0.058449097 0.32739675 0.026031774 -0.22399198 -0.21827905 -0.06611839 -0.08683048
0.014016955 0.2792127 0.13008298 0.25452036 0.21990983 -0.016858704 0.35676676 0.18488666
0.18996225 0.19611454 -0.031337343 0.20935169 0.22945407 0.102158196 0.23678473 0.043150924
-0.22496007 -0.22678037 -0.05074958 -0.13262361 0.0082766535 0.3644991 0.18904716 0.31541482
0.20580211 -0.038682863 0.27549648 0.17115653 0.13898818 0.2866211 0.03666623 0.2544511
0.13805707 0.16267143 0.16378292 -0.031735454 -0.20287728 -0.23197322 -0.007418928 -0.09323742
-0.03691855 0.12508933 0.107727595 0.11700592 0.35395834 -0.026351219 0.33239236 0.31871375
-0.008324449 0.17573534 -0.010225591 0.041877672 0.29349974 0.4206511 0.34057117 -0.004683839
-0.27176124 0.082710974 -0.17213738 0.08713914 0.023729743 0.1855866 0.07232706 0.079809025
0.48153445 0.028820753 0.27359635 0.2637482 0.054842405 0.1826584 0.038413323 0.10753231
0.3404261 0.22536401 0.2921294 -0.032730322 -0.23380744 0.1212179 -0.18647692 0.0717527
-0.011034356 0.24365026 0.09620779 0.16037913 0.37221584 0.010027175 0.36724952 0.26659405
0.08029111 0.23826797 -0.01664086 0.12856707 0.23936908 0.1657688 0.28560394 -0.005186465

bias f4 [128]
00000000: 70fd 2d3e 0418 603e b3c1 653e d5df 43bd
00000010: 8660 2a3e d484 a13f b85c 4d3e 2594 bfbe
00000020: 8aa1 7e3c b290 663e 473e c3be e5e6 4c3e
00000030: de03 f43d 7c55 bebe 7fab 1ebd 2bbb 453e
00000040: 89ab 883f a7b0 633e 1a5a 153e 3f93 883f
00000050: 900b dd3d 6b2f 383e 1f0f c33f 078d 30bd
00000060: ccfa 663e 7035 38bd a6a5 653e 2a32 46bd
00000070: 945b 613e 6dc5 533e 2c0a 583e 8e8f 4cbd
00000080: 4cd4 f63c be6f 303e 830e e63d be58 453e
00000090: ba75 aebe ef0b 44bd feec 553e 0f2e a0be
000000a0: da54 4d3e 7718 443e fcb1 8abe ed54 e43d
000000b0: db42 babe d4f7 403e ae79 adbe ac1f c73e
000000c0: ecd6 48bd 6a42 f33d 3ac3 953e 70db 353e
000000d0: 59fe 3e3f 3c39 713e b376 4a3e aea6 373e
000000e0: e36d 6c3e 1b19 2d3e 282e 353e 2be0 c23d
000000f0: 0482 113e c844 143e 4901 b6be 0eb1 653e
00000100: 0939 433e 8be9 553e 287f 3e3e abfc b0be
00000110: 2daa 5f3e 5637 5c3e 1f4d 833e 72a5 3a3e
00000120: 8454 543e fe5c 5d3e 4035 3b3e 32fb b73e
00000130: 92d0 58bd f024 2c40 dcff 5d3e 6259 9f3d
00000140: 10ea 313e cfb5 2f3e 7421 143e f451 3c3e
00000150: 339a e53e 2759 3f3e f67f 5b3e 58d9 293e
00000160: 50a0 c3be 9dc4 513e f305 0e3e 27c3 e03e
00000170: f08b 40bd aa1d 48bd 8e05 26be 4d9b 493e
00000180: 2b12 223a 4c58 7a3e d767 43bd 3e8e 7b3e
00000190: 44f4 4e3e c460 98be 519e 433e 8c92 3d3e
000001a0: 296e 36bd d692 463e d671 ce3f 0e2d 6b3e
000001b0: 6ea8 183e 63c7 0c3e 5dbc 203e 7d69 5e3e
000001c0: 5e53 393e 7b52 4a3e 0643 5a3e 3e27 57bd
000001d0: 5ef3 0a3e adaa 243e ceb7 3ebd 6a75 513e
000001e0: e35e 393e aed8 453e d619 9e3d 78b9 413e
000001f0: 163d 43bd fef1 543e dc2c 253e 9918 5a3e
0.1699121 0.21884161 0.22437172 -0.047820885 0.16638383 1.2618661 0.200549 -0.37417713
0.015541444 0.22516134 -0.3813345 0.20009954 0.119148 -0.37174594 -0.03873777 0.1930968
1.0677348 0.22235356 0.14585152 1.0669936 0.10793221 0.17986839 1.523899 -0.043103244
0.22556609 -0.044972837 0.22426471 -0.048387684 0.2200759 0.2068078 0.2109763 -0.049941592
0.030130528 0.17230126 0.11233237 0.19272134 -0.34074193 -0.047862943 0.20891187 -0.3128514
0.200519 0.19149958 -0.27088916 0.11149011 -0.36379132 0.18844539 -0.33881897 0.3889135
-0.04903309 0.11877902 0.2925051 0.1775949 0.74606854 0.2355699 0.19771843 0.17934677
0.23088793 0.16904108 0.17693388 0.09515413 0.14209753 0.14479363 -0.35547855 0.22430822
0.19064726 0.20889871 0.18603194 -0.3456777 0.2184226 0.21505484 0.25644776 0.18227175
0.20735365 0.21617505 0.18282032 0.35933834 -0.052933283 2.6897545 0.21679634 0.0778072
0.17374444 0.17159198 0.14465886 0.18390638 0.44844207 0.18686353 0.21435532 0.16586816
-0.38208246 0.20485158 0.13869457 0.4389889 -0.047008455 -0.048856415 -0.16213056 0.19688149
0.0006182517 0.24447745 -0.04770645 0.2456598 0.20210367 -0.29761326 0.19103362 0.18512934
-0.04453865 0.19391951 1.612849 0.22966406 0.14908001 0.13747935 0.15696855 0.21719928
0.18098208 0.19758026 0.2131463 -0.05252766 0.135694 0.16080733 -0.04656201 0.20454946
0.18102603 0.19320938 0.077197716 0.18918407 -0.047665678 0.20795438 0.16130394 0.21298446

weight f4 [6, 128]
00000000: 4ed0 1bbf 00b9 cdbe a387 3cbe e1f1 a6bc
00000010: 2f07 863d 00fc 813f e598 11bf 47e2 f2be
00000020: 70de 233e 248e f4be 6c25 01bf 8587 05be
00000030: d48c e83d 9d68 16bf c188 b2be 64d5 05bf
00000040: 3b21 9d3f 41cc b3be 3e6f e9be 3c13 473f
00000050: 2583 55bd 3402 09bf e047 ccbd d6ad 78bf
00000060: c4fe c2be f30d cdbd 141b 8ebe 9bdf 893d
00000070: 306f 543e 9fcb 08bf 453f d6be 684a 453d
00000080: a53a c9be 7d64 85bd eb3d f5be c3bc 00bf
00000090: 6ad8 cbbe 8d34 9d3c 15d4 62be 522c e2be
000000a0: e03b 08bf c726 dbbe 7a00 6cbf b7ae 873f
000000b0: 20fb f9be 5f8f 84be 3d49 eebe 1399 42bf
000000c0: 9f9a 92bd b6fd adbe 3b75 f5be 1c9d 0bbf
000000d0: 9406 293f f36e 5abe 3496 a4be 88ce d6be
000000e0: 27fa d8be c3b4 b1be e74c d8be 0c74 d9be
000000f0: 2f49 06bf fca7 9fbe b67a f9be 7fbc 86be
00000100: 8ed9 fabe abd9 f0be 69cd 873e bcdc dfbe
00000110: 2bab 18bf b515 0abf 8d6c ddbe d0f0 c6be
00000120: 781a 6e3e a413 00be 8929 dbbe 2f5f 7f3f
00000130: 3593 853d bb45 0440 a4fe 2cbe 113f bb3d
00000140: 72b3 b63d a252 f1be 1019 12bf b201 06bf
00000150: 00c7 52bf d216 60bf d17f a0be 4264 ac3d
00000160: c3df d2be fe1e 45be 7fe0 b5be 9659 a03e
00000170: e635 8f3d c764 81bd 9db8 ffbe 513d adbe
00000180: e3b9 ad3c 57ff 88be 8b51 ba3c 91b0 febe
00000190: da4c 7bbe 90c1 eabe 78fe b0be 9171 12bf
000001a0: e799 a43d ed2d fabe a281 d63f 9365 04bf
000001b0: 2118 c0be 3d71 2bbf 72d4 823e a14b e0bc
000001c0: b7f4 bfbe e600 11bf c231 a1be 37eb c6bd
000001d0: d9c8 1dbf 1ef4 08bf aa10 663d e197 93be
000001e0: 99ac 8f3e a681 ecbe 3766 f8be bc02 e4be
000001f0: ad8b 953d de87 babe a69e c1be 98b0 f9be
00000200: 920c a3be fa16 15be 0825 22bf b825 083d
00000210: 521c 8cbe c9ef a03d 6d4d edbe a1be 86be
00000220: f90f ca3e 6ea2 97be 37b5 d3bc fe98 cebe
00000230: f70a 443e bebf bb3d 17cc 8bbe 8d32 bdbe
00000240: ae74 ce3f 290d 14bf d0e6 01bf 6cdd 093f
00000250: 92e7 5d3e 7c2e 9ebd 1632 cc3f 85c5 963e
00000260: b869 14bf 1402 3abc 9a80 a7bd 7047 043d
00000270: 0e38 d0be 02a8 64be f455 d7be 3c55 ab3c
00000280: bb37 efbd 217f 21bf f716 89bf 681e 62be
00000290: 57b5 aabe 771d e03c c400 1dbf 31bd 2ebe
000002a0: 365a 0cbf c3c4 aabe 6fad 8dbf 3062 cc3b
000002b0: 44dd 98be 4d7f c8be b90c 1fbe 9238 6fbf
000002c0: 8ad3 5bbd 17e6 81be 33e0 93bf 3ece 9cbe
000002d0: de96 983f 99ea d6bc 1bff 0dbf fb65 d2be
000002e0: 5116 cabe ed20 d6be c0df 0abf b164 49be
000002f0: 017f c1be 53cd fd3d 22fe 88be 4fc8 27bf
00000300: 793f 40be a9b9 1bbf 953f 94be cc67 8bbe
00000310: 6913 1cbe d898 1fbf f324 debe 8922 e3be
00000320: 04a5 833e 9a58 1abf 68a5 b7be fa03 9fbf
00000330: 4560 2d3c 5ed6 b03f 834d dfbc d1c0 f0bd
00000340: c7f9 70be d823 d3be 03ad 803d 50c0 09bf
00000350: 2b6f a23f 92f2 96bf 5d6d 2bbf 5622 aabe
00000360: 990a afbe f3ec 2d3e df2e 00bf d258 453f
00000370: 0dd8 223d 5d64 203d b871 b4bd a1be 32be
00000380: 7afa 973c e1c6 1bbf e89f cdbc e3db 20bf
00000390: 26d6 d5bd b4e1 a0bc 8d32 72be 7f7c dabe
000003a0: 96af 02bd a5c2 19bf a48e d93f d51b 15bf
000003b0: 5280 dabe d7ca 2bbe 5063 96be 0667 aa3d
000003c0: 1edd 7cbe fc77 0ebf 99b7 75be dc73 473d
000003d0: 0fcb 5a3d 052c 8cbe ba44 8b3c 6226 d6be
000003e0: 6276 c2be d63f f2be 460d 84be 0409 b7bd
000003f0: c1ce 843c 8c75 13bf 7d4e 73be 84df 14bf
-0.6086472 -0.40180206 -0.18411116 -0.020379009 0.06544339 1.0155029 -0.56873924 -0.4743826
0.16002822 -0.47764695 -0.50447726 -0.13039978 0.11354986 -0.5875338 -0.3486996 -0.52278733
1.2275766 -0.3511677 -0.45592684 0.77763724 -0.052127022 -0.53518987 -0.099746466 -0.9714025
-0.38084996 -0.10012426 -0.27755034 0.067321025 0.2074554 -0.534357 -0.41845146 0.048166662
-0.39302555 -0.06513307 -0.47898802 -0.5028803 -0.39813548 0.019190097 -0.22151215 -0.4417444
-0.5321636 -0.42803022 -0.9218823 1.0600194 -0.48824406 -0.25890633 -0.4654025 -0.7601482
-0.07158398 -0.3398263 -0.47941002 -0.54536605 0.6602566 -0.21331386 -0.32145846 -0.41954446
-0.4237835 -0.34708223 -0.42246172 -0.4247135 -0.5245542 -0.3118285 -0.48726434 -0.26315686
-0.48994106 -0.47041067 0.26523903 -0.43723094 -0.5963618 -0.5393937 -0.4324688 -0.388556
0.23252285 -0.12507492 -0.42805126 0.99754614 0.06522218 2.066756 -0.16894013 0.09142888
0.08920945 -0.47133356 -0.5706949 -0.52346337 -0.823349 -0.8753482 -0.31347516 0.0841756
-0.41186342 -0.19250104 -0.3552284 0.3131835 0.06992702 -0.0631805 -0.49945536 -0.33835843
0.021206802 -0.2675731 0.02274396 -0.49744084 -0.24541035 -0.458508 -0.34569144 -0.5720454
0.08037167 -0.48863164 1.6758311 -0.5171749 -0.3751841 -0.6696966 0.25552708 -0.027379813
-0.3749139 -0.56641996 -0.31483275 -0.097128324 -0.61634594 -0.53497493 0.056168236 -0.28826812
0.2806137 -0.46192664 -0.48515484 -0.44533336 0.07302032 -0.36431783 -0.37816352 -0.48767543
-0.31845528 -0.14559546 -0.63337755 0.033239096 -0.27365357 0.078582354 -0.46348134 -0.26317313
0.3946531 -0.29616112 -0.025843246 -0.403511 0.19144808 0.09167431 -0.27304146 -0.3695263
1.6129358 -0.5783258 -0.50742817 0.5385349 0.21670368 -0.0772371 1.5952785 0.2944757
-0.57973814 -0.0113530345 -0.08178826 0.03229469 -0.40667766 -0.22329715 -0.42057765 0.020914666
-0.116805516 -0.6308461 -1.0710133 -0.22081912 -0.33341476 0.0273578 -0.61329293 -0.17064358
-0.5482515 -0.33353242 -1.1068553 0.006237291 -0.29856312 -0.39159623 -0.15532197 -0.93445694
-0.053668536 -0.25370857 -1.1552795 -0.306261 1.1921041 -0.026234912 -0.55467385 -0.4109343
-0.3947015 -0.41821995 -0.54247665 -0.19667317 -0.3779221 0.12392678 -0.26756388 -0.6554002
-0.18774213 -0.6083017 -0.2895476 -0.27227628 -0.1524178 -0.62342596 -0.43387565 -0.44362286
0.25711834 -0.60291445 -0.35868382 -1.2423089 0.0105820345 1.381542 -0.02725864 -0.11755527
-0.23532782 -0.41238284 0.06282999 -0.5380907 1.2690176 -1.1792777 -0.6696375 -0.3322932
-0.34187773 0.1698492 -0.5007152 0.77088654 0.039756823 0.039158214 -0.08810753 -0.17455532
0.018552054 -0.6085034 -0.025100663 -0.6283552 -0.10441236 -0.019638874 -0.23652096 -0.42673108
-0.031905733 -0.6006263 1.6996655 -0.58245593 -0.42676026 -0.16776596 -0.29372644 0.083204314
-0.24693725 -0.5565183 -0.23995818 0.048694476 0.053416308 -0.27377334 0.017000545 -0.4182616
-0.37980944 -0.47314328 -0.25791377 -0.089372665 0.01621187 -0.5760124 -0.2376041 -0.5815356

bias f4 [6]
00000000: d4f9 ac3e ff68 483f 03da 4a3f 26cc 7a3f
00000010: f7af 5d3f 9116 573f
0.33784354 0.7828521 0.7923891 0.97967756 0.86596626 0.8401881
