datasets/DQN_test/dqn-model1.pt (torch, 261672 bytes, 4 tensors)

fc1.weight f4 [128, 500]
00000000: e175 24bd 02e4 143e 8ce9 1b3e d114 213e
00000010: 8acf 923e 4fae 87bc d5f9 943e 85af 513e
00000020: b5ca d53e cf50 c93e e265 2f3d 0b99 9b3e
00000030: 24c1 9e3e b175 b43e 1be8 433e 874d 53bc
00000040: f343 243e f797 b03e 0886 b83e 21cc d03e
00000050: c558 2b3d 64fa 8c3e cfe1 643e db53 3c3e
00000060: e571 fd3d ba0a 7039 6b2f 893e f9da 243e
00000070: b39e 873e a810 603e 7d5a ae3c e9b8 873e
00000080: 7ec2 493e f64a 7c3e ca73 2b3e 413c d93c
00000090: 686f 423e 95f3 2b3e 9f51 523e 2c13 8c3e
000000a0: 8ed8 80bc ab8a a03e 6644 b03e 61cc 603e
000000b0: 72e0 bf3e 4a66 b63c 7897 cb3e 2a68 d53e
000000c0: 9123 4a3e c285 db3e 5e06 ac3c 9db9 b43e
000000d0: 2990 683e 2782 5f3e f090 623e 0593 9fbc
000000e0: c1e7 a03e ff15 473e 24ed 993e 0012 8f3e
000000f0: 4761 a2bc e7af 783e 1164 713e d9e3 6d3e
00000100: 88c9 923e 6465 edbc 9acb ac3e fefa ab3e
00000110: 22a3 933e d88c 983e a51e 1839 87b5 8c3e
00000120: 7940 6f3e 6459 723e 16f4 ff3d 27db d23c
00000130: 592e 703e 00d8 913e 9b7a b43e 5b0f 6f3e
00000140: 6865 bf3c 596f 6d3e dcb6 9c3e 6a91 2b3e
00000150: 6038 303d 63d9 a8bb 9cef de3c 765c 113d
00000160: 199b 513e 00b5 2b3e 8fa8 3b3c 8faf a13e
00000170: 2fc0 3b3e e4f6 863e a52a 1a3e 8e55 c13c
00000180: 8dd2 883e 6dd5 733e 4fb0 7c3e 3c52 863e
00000190: 66aa 0f3c b1c7 a53e c4ea a43e 64f0 b53e
000001a0: 9ed7 a23e 0801 e5bc 1b76 c93e 4693 943e
000001b0: c448 b93e 5b72 cd3e c744 5e3b 8cd3 cc3e
000001c0: 64c0 df3e 5bf1 d63e 9c80 813e eb2d 123c
000001d0: 8e01 773e 8433 213e 0210 743e 1b99 753e
000001e0: 82ad c8bc ad2a c23e 3587 603e 90eb 873e
000001f0: 8ac1 923e badd ecbc e8c7 b63e c1c9 993e
00000200: 44b5 d13e 0d6d 6f3e 9f6d 7e3b bda3 973e
00000210: 8dad 9e3e c23c 863e 4002 773e 7307 f4bc
00000220: 3a29 813e dd19 523e 1db8 893e 41e1 833e
00000230: e473 a5bc 2655 ab3e 365e c43e c617 993e
00000240: ccfe 023f f1d9 eebc d168 cf3e 915f b93e
00000250: cf21 8f3e d5a2 b03e 1e6b ecbc bc8e 993e
00000260: db3b cf3e c0f0 773e b24d 913e 7d27 05bd
00000270: fcc5 793e 9e8c 453e 4e2f 583e 6d04 863e
00000280: b9b2 cdbc cc22 9d3e 2260 bd3e 6cc9 b13e
00000290: b67c 7f3e db2d 9d3c dbd7 b63e c498 bb3e
000002a0: e5cc b73e a9ba cd3e de9c 1cbd c29c 9c3e
000002b0: 5efd 613e 8441 b33e 7341 1d3e f839 13bd
000002c0: 5d21 723e 745c 803e 048d 903e 039f 893e
000002d0: 6f45 59bc d875 643e 0ae0 933e a801 413e
000002e0: cea1 833e 8be5 ecbc c246 d43e f08c 513e
000002f0: edb0 893e fb61 8e3e a672 27bd aeb1 753e
00000300: a514 b23e daab 973e 8622 8f3e c15b edbc
00000310: f04e ab3e c10d 8e3e c2e0 9f3e 56ff 843e
00000320: 2d90 763c 6214 bd3e e5c6 993e 5f67 ad3e
00000330: 5dba b63e b09b 153c 9101 ad3e 5e18 af3e
00000340: abb1 d43e b449 cb3e b535 f9b8 53a7 733e
00000350: 4077 dd3e 9820 af3e cf96 d93e 2022 343d
00000360: 09a7 cd3e 7071 903e 68e6 1d3e be71 af3e
00000370: 4b94 a53b 7ba5 903e 7ff9 bf3e 66b0 5a3e
00000380: 21db b53e e93c 863c d6fb ba3e 3d47 973e
00000390: 4c2c b63e 0061 b93e cb7d 013d f11d 803e
000003a0: 7b58 ac3e 6cb8 c23e 2889 ac3e c9cc babc
000003b0: 2191 ab3e 0840 9f3e 5c6d 983e b263 8c3e
000003c0: d215 58bc 3b25 9f3e 7b3f 903e 5794 c83e
000003d0: 2e14 bd3e 2db6 8ebb e1fe 8e3e 3f0b 8b3e
000003e0: 984d bb3e bdf4 d83e 2eb2 013d 15ae bb3e
000003f0: e448 b93e e7b4 a23e c6fa 853e a03b e3bc
-0.04015148 0.14540103 0.1522581 0.15730597 0.28673965 -0.016562609 0.29096857 0.20477112
0.41756216 0.39319465 0.042821772 0.303902 0.3100673 0.3524604 0.1913151 -0.012896902
0.16041546 0.3449094 0.36039758 0.40780738 0.041832704 0.27534783 0.22351764 0.18391363
0.12375239 0.0002289218 0.2679399 0.16099156 0.26488265 0.21881354 0.021283383 0.26508263
0.19703099 0.2463797 0.16743389 0.02651799 0.1898781 0.16792138 0.20538948 0.27358377
-0.015728261 0.31355795 0.34427184 0.21952964 0.37475926 0.022265572 0.39764 0.41681033
0.1974013 0.42875487 0.02099913 0.35297862 0.22711243 0.21826993 0.22125602 -0.019479284
0.31426814 0.19441985 0.30063736 0.2794342 -0.019821776 0.24285851 0.23573329 0.23231448
0.2866938 -0.02897901 0.33749086 0.3358993 0.28835398 0.29794955 0.00014507266 0.27482244
0.23364438 0.23666912 0.124977276 0.025739266 0.2345518 0.28485107 0.3524979 0.23345701
0.023363784 0.23187007 0.3060826 0.1675469 0.043022513 -0.0051528676 0.027213864 0.03548857
0.20469321 0.16768265 0.011453762 0.31579253 0.18335031 0.26360238 0.1505533 0.023600366
0.26723137 0.23811884 0.24676631 0.26234615 0.0087686535 0.32378915 0.32210362 0.35534966
0.31805128 -0.027954593 0.3934792 0.2901861 0.36188328 0.4012631 0.0033915506 0.40005147
0.4370147 0.41981015 0.25293434 0.0089220805 0.24121687 0.15742308 0.23834231 0.23984186
-0.024496797 0.37923184 0.21926577 0.26546907 0.28663284 -0.028914321 0.3569939 0.3003674
0.40958607 0.23381443 0.0038822663 0.2961711 0.30991784 0.2621823 0.24121952 -0.029788708
0.25226766 0.20517679 0.2689828 0.25757793 -0.020196863 0.334634 0.38353127 0.2990095
0.5117004 -0.029156657 0.40509656 0.36205724 0.2795548 0.3449923 -0.028859671 0.2999171
0.40475354 0.24212933 0.2837959 -0.032508362 0.24391931 0.19291922 0.21111795 0.26175252
-0.025109636 0.3069061 0.36987406 0.34723985 0.24949917 0.019186905 0.3571156 0.36639988
0.3589851 0.40181473 -0.038235538 0.30588347 0.22069308 0.35010922 0.15356998 -0.035943955
0.2364554 0.25070536 0.28232586 0.2687913 -0.013261183 0.22310579 0.28881866 0.18848288
0.25709385 -0.028918048 0.41460234 0.2046392 0.26892796 0.27809128 -0.04088082 0.2399356
0.34781376 0.296233 0.27956027 -0.028974416 0.33458662 0.27744868 0.31226164 0.25976056
0.015049023 0.36929613 0.30034557 0.33867928 0.3568906 0.009131357 0.33790258 0.34198278
0.415418 0.3970467 -0.00011883249 0.23794298 0.43255043 0.34204555 0.4249787 0.043977857
0.401665 0.28211546 0.15419924 0.34266466 0.0050530783 0.28251252 0.37495038 0.21356353
0.35518745 0.016386466 0.3652026 0.29546538 0.3558067 0.36206818 0.031614106 0.25022843
0.33661255 0.38031328 0.33698392 -0.022802727 0.33509162 0.3110354 0.29770935 0.2741981
-0.013188796 0.31083092 0.28173432 0.39175674 0.36929458 -0.004355213 0.27928832 0.27157018
0.36582637 0.4237422 0.031664066 0.36656252 0.36188424 0.31778643 0.26167887 -0.027738392

fc1.bias f4 [128]
00000000: bf63 a33e 0a79 3abd 7d6e 333f bb9d 49bd
00000010: 3093 c7bd 27f7 283f 31e0 89bd f6e7 bb3d
00000020: cfd9 f63e 68ce d33e 3faa c73e 5375 ef3d
00000030: 5031 413f 79e4 1f3e 73fa d23e 4820 163f
00000040: cef6 f53e f494 7b3e 6341 b73e 60d1 083f
00000050: 2cb0 e93e a4b9 233f cd59 b4bd 0362 083f
00000060: aed2 9fbd 2e7e 193f be82 903e 0b2e 2f3f
00000070: e402 ef3e 9cd1 103f aeda c43e 4887 3a3f
00000080: 715b d63e aca4 a83e 7957 103f de80 d13e
00000090: 861b 033e 3b7d cc3e 54a8 223f 0277 853e
000000a0: 7585 293f 14f6 b13d b8ce 36bd 2e9e c73d
000000b0: b4a0 f03e cdd4 f53e b8e1 663e 9c76 fe3d
000000c0: 7a55 5ebd 8875 5abd 5ee5 d93d 8b7d f83e
000000d0: a32a 093f b184 443e af53 073f c738 213f
000000e0: 5b67 103f 4028 f03e 1a7c 1b3f e212 e83e
000000f0: a496 053e a8e7 4bbd fe14 973e 2fc1 093e
00000100: 28db e13e 7712 74bd c164 5f3e a736 483e
00000110: a0e2 f13d 8de6 d83d bf93 6cbd 2f02 b03e
00000120: 8dc9 033f ce2a 163f 0b34 b43e 0d0d 1b3f
00000130: 024b e33e c176 153f 3eb5 163f 8a43 113f
00000140: 992a 84bd f426 063f 4bdf a53d 0014 5abd
00000150: 43ec 083f 793b 783e 08bc bb3e c3e2 c43e
00000160: a414 163e d98f 49bd a829 073f dc4a 203e
00000170: 3a8f a53e 3856 95bd d9da ea3e 504a 4ebd
00000180: e1bd e93e f64a 103f 15df 4cbd c602 0c3f
00000190: 7171 fd3e ff1d d93e 4c78 93bd 569d bd3e
000001a0: 981e 093f 91ca 7fbd 41ee 093f 4bb5 193e
000001b0: dd85 033f 4a18 bb3e db4f 083f 1bcf d53e
000001c0: c9f7 43bd 7136 5f3e ad35 bb3e e7e9 57bd
000001d0: 92b1 0e3f 54a0 013e 85ab 1a3f 7fb7 a03e
000001e0: 2018 d13e de5b da3e c1ea 91bd 8b4c b33e
000001f0: ea00 6a3e 8a1b 053f 00fc 383e 1f9b e53e
0.31912038 -0.045525588 0.70090467 -0.04922269 -0.09744871 0.66002125 -0.06732214 0.091751024
0.4821305 0.41368413 0.38997075 0.116923 0.7546587 0.15614499 0.41206703 0.5864301
0.4803986 0.2456854 0.35792074 0.5344448 0.4564222 0.6395514 -0.08806191 0.53274554
-0.07803856 0.5995816 0.28224748 0.6842963 0.46681893 0.5656984 0.3844809 0.7286267
0.4186664 0.32938135 0.5638347 0.4091863 0.12803468 0.39939293 0.635381 0.26067358
0.66219264 0.08689514 -0.044630736 0.09746967 0.46997607 0.48013917 0.22547042 0.12424967
-0.054280736 -0.053334743 0.106394514 0.48533282 0.53580683 0.19191243 0.52862066 0.6297726
0.5640771 0.46905708 0.6073624 0.45326906 0.13045746 -0.04978147 0.29508203 0.134526
0.44112515 -0.059587922 0.21815778 0.19552098 0.118108034 0.10590849 -0.05775809 0.34376666
0.5147942 0.58659065 0.35195956 0.6056679 0.44393164 0.5838433 0.58870304 0.5674368
-0.06453437 0.5240319 0.080992304 -0.05324173 0.53485507 0.24241437 0.36666894 0.38454255
0.14656311 -0.04920945 0.5279794 0.15653557 0.32335836 -0.072918355 0.45870093 -0.05036384
0.4565268 0.5636438 -0.050017435 0.5469173 0.4950061 0.42405698 -0.07200679 0.370341
0.5356231 -0.06244904 0.5387917 0.15010564 0.51376134 0.3654197 0.5324685 0.4175957
-0.04784373 0.21798111 0.3656439 -0.0527133 0.557397 0.12658817 0.6041797 0.31389996
0.40838718 0.42648214 -0.07124854 0.35019335 0.22851911 0.51995146 0.1806488 0.4484491

fc2.weight f4 [6, 128]
00000000: 2326 31be 7545 b43c 3789 d4be a989 623d
00000010: 61e9 91bd a221 afbe efb2 823c 60a2 263d
00000020: 37dd 7ebe 49d2 5cbe ea09 87bd a70b 16be
00000030: d6b2 d4be 29e3 0bbf daeb afbe 69a3 52be
00000040: 52ae 4ebe 18b8 683d 1638 90bd 1ca2 8abe
00000050: f63b f1be 2e8d b0be 9e48 26be 85b8 71be
00000060: 630f 65bd b58c 6cbe e379 163e 164e ddbe
00000070: 9503 88be 506d aebe 5966 c2bd d95d ccbe
00000080: 065c 74be 5e4f babd a5d3 9dbe 70b3 95be
00000090: 6c62 e03d e727 fdbd e0ef a6be 05ad 14be
000000a0: 0284 a5be 0b22 4b3e 3051 ac3d 84a7 c7bd
000000b0: 554d 25be 90ae 8dbe c897 d8bc 0c15 3abe
000000c0: 0668 003c df7a 01bc f8b5 dabd 6296 85be
000000d0: eda7 43be 2461 e7be 4b4d b4be 0882 9dbe
000000e0: b944 54be 0011 543d 9240 69be bb23 8ebe
000000f0: b8e7 53bd 0658 1f3d ee63 7dbd 9cf2 7b3e
00000100: a905 a8be 3780 573d 3184 1ebd b8a6 84be
00000110: 1f42 31bd b20b d53d e532 28bd 32c8 34be
00000120: 7baf 2fbe 31cd b5be 6510 04be 39f3 21be
00000130: f297 febd a7ce 9ebe 3632 a6be 42ba 53be
00000140: 51c5 dd3c eed8 86be d856 173d 0728 003b
00000150: 70f4 a5be 1eee c8be 15a6 20be ff91 4bbe
00000160: bfaa 31be aaac 05bc 430c 43be c85c 56be
00000170: 75ab 26bf 4926 73bc 3b79 2abe 3b54 7dbd
00000180: ae0e 94be ac72 1dbe 090c 66bd d278 b7be
00000190: 1f13 6fbe 7d84 f5bd dbd7 3dbd ee9d 29be
000001a0: 0096 63be d947 ccbb e77f 7ebe 135d b2bd
000001b0: 2179 5cbe 7af8 1fbe 175d a4be 4c39 0fbe
000001c0: 6d42 8abd 115f 1bbd f959 3ebe 7f3b 11bb
000001d0: 2436 b7be d214 0d3e 6119 8dbe 1948 61bd
000001e0: ed40 98be 4eb4 9dbe 6860 0dbd 3681 62be
000001f0: 0f5d 04be 3087 84be b967 a2be fbbb 0cbe
00000200: a4d2 2ebc f453 963d a89d 6abe 72a5 19bd
00000210: 7da2 9bbc 4442 9ebe 6ade 16bd e9ed aebe
00000220: e9a8 f6bd 9782 bdbd 73d9 b6be 288e 83be
00000230: be0d aebe c503 bfbe b347 0fbd 4caf acbe
00000240: 7311 30be 6677 a9be 3d49 37be 03ac 8ebe
00000250: fef0 d5be bd84 8dbe c160 40bd de7d 95be
00000260: 55d3 003c 1502 a2be cf1e 6ebf 8c8f 84be
00000270: 6636 89be 7824 e3bd 4b59 a4be af8c 89be
00000280: ba91 5ebe d677 28be e9a3 b2be 0da5 61bd
00000290: 7d5a aabe 15ad 3abe 7a91 8ebe 1643 ef3b
000002a0: b9d5 93be 3bf8 1dbe e7c2 7d3d ed24 86bd
000002b0: 3b63 5fbe bc5b 35be e716 c8bd 162e 04bd
000002c0: b8df 593d a62c d9bd 977c 793d 8389 31be
000002d0: a1e2 bbbd 05b8 b93c e94c 77be 5fbf a3be
000002e0: 1771 99be 73bc 2fbf c976 5ebe 7c4a ebbd
000002f0: 7357 89be daf9 48bd cf4b 47be 6885 10be
00000300: a0c8 4cbf c8df 85bd b0a4 e4be 0020 ea3d
00000310: 0ad6 a1bd f8e8 6cbe e220 fcbc 8880 e2bd
00000320: 2d31 86be 9d1c 69be c2f1 9ebd ee0a bdbe
00000330: 36f8 6bbe 3327 9dbe 7447 a8be b72a 8ebe
00000340: f342 b83c 3591 75be 23db 73be 2b8e 16bd
00000350: f32c 72be 1d51 263d 7978 063d 2228 30be
00000360: fd6a c3bd 40fb 943d 0d1a b0be 36a7 433c
00000370: 2fe3 b23e a2cd 7bbc 7580 2bbe 9c42 dd3b
00000380: ce91 8ebd c08e afbe 968d 8ebd ce29 d6bd
00000390: cf57 95be 4517 52be 4952 adbd 4275 debd
000003a0: 196d 8abe b241 b5bc 938f abbe 1086 c4bd
000003b0: 8138 4bbe 970a 33be 6284 7ebe bfde 96be
000003c0: 01eb 41bd 614d 37be 87b2 3ebe a7fe 64bd
000003d0: 5d75 17be 894a 07be b04c 83be 8c30 7cbe
000003e0: 0da8 8fbe 9256 d6bd 3e3f be3c d0ac 3cbe
000003f0: c3c5 0cbe 46f1 9cbe 58ff 1a3d 55a7 70be
-0.17299704 0.022005776 -0.41510937 0.055307064 -0.071245916 -0.34205347 0.015954463 0.040682197
-0.24889074 -0.21564592 -0.06593688 -0.14652883 -0.4154269 -0.54643494 -0.34359628 -0.20570149
-0.20183685 0.05681619 -0.070419475 -0.27076805 -0.4711606 -0.34482712 -0.16238639 -0.23605545
-0.055922877 -0.2310055 0.14694934 -0.43223637 -0.26565233 -0.34067774 -0.094921775 -0.3991535
-0.23863229 -0.09097169 -0.30825534 -0.29238462 0.109562725 -0.123611264 -0.32604885 -0.14519127
-0.32327276 0.19837205 0.08413923 -0.09748748 -0.16142781 -0.27672243 -0.026439562 -0.18172091
0.007837301 -0.00790283 -0.10679239 -0.26091295 -0.19107027 -0.451913 -0.3521522 -0.30763268
-0.2072934 0.051774025 -0.22778538 -0.27761635 -0.051734656 0.038902305 -0.06186288 0.24604267
-0.32816818 0.05261251 -0.038700286 -0.25908446 -0.04327595 0.10402621 -0.04106416 -0.17654493
-0.17156784 -0.3550811 -0.12896879 -0.15815438 -0.12431325 -0.31017038 -0.32460183 -0.2067652
0.027071627 -0.2633738 0.036948055 0.0019555108 -0.32413054 -0.3924417 -0.15688355 -0.19879912
-0.1735029 -0.008158842 -0.19047646 -0.2093383 -0.6510537 -0.014840671 -0.16647808 -0.061847907
-0.2891745 -0.15375775 -0.05616382 -0.35834366 -0.23347138 -0.11988161 -0.046348434 -0.16564152
-0.22225189 -0.006234151 -0.24853478 -0.08709159 -0.21530582 -0.1562213 -0.32102272 -0.13986701
-0.06750951 -0.03793246 -0.1858901 -0.0022160707 -0.35783494 0.13777474 -0.27558425 -0.0550004
-0.29737034 -0.30801624 -0.03451577 -0.22119603 -0.12926124 -0.2588439 -0.3171976 -0.13743584
-0.010670338 0.073402315 -0.22911704 -0.037511297 -0.018998379 -0.30909932 -0.036833204 -0.34165886
-0.12043936 -0.09253424 -0.35712776 -0.25694394 -0.3399486 -0.37307563 -0.034980487 -0.3372749
-0.17194156 -0.33098906 -0.17899032 -0.2786561 -0.41785425 -0.27640334 -0.04696727 -0.29197592
0.0078628855 -0.31642213 -0.9301576 -0.25890768 -0.26799315 -0.1109094 -0.32099375 -0.26865146
-0.21735278 -0.16451964 -0.3489068 -0.055089045 -0.33272162 -0.18230088 -0.27845365 0.0073016984
-0.28873995 -0.15426724 0.06195345 -0.06550012 -0.21815197 -0.17710775 -0.09769993 -0.032270513
0.05319187 -0.10604219 0.060909834 -0.17337613 -0.091740854 0.022670755 -0.24150433 -0.31981942
-0.29969093 -0.68646926 -0.21725 -0.11488816 -0.2682453 -0.049066402 -0.19462512 -0.1411339
-0.7999363 -0.065368235 -0.44656897 0.11431885 -0.07902153 -0.23135746 -0.030777398 -0.11059672
-0.26209393 -0.22764821 -0.077609554 -0.369224 -0.23043904 -0.3069397 -0.32867014 -0.27766964
0.022492861 -0.23981173 -0.23814063 -0.036756676 -0.2364996 0.0406047 0.032829735 -0.1720281
-0.09541891 0.07274485 -0.34394875 0.011941722 0.34938952 -0.015368851 -0.16748221 0.006752325
-0.06961404 -0.34288597 -0.06960599 -0.10457192 -0.29168555 -0.20516689 -0.0846296 -0.10862209
-0.2703636 -0.022126053 -0.33507976 -0.09595883 -0.19845773 -0.17484508 -0.24855188 -0.29466817
-0.047343258 -0.17900611 -0.1862279 -0.055906918 -0.14790864 -0.13212027 -0.25644445 -0.24627894
-0.280579 -0.10465731 0.023223516 -0.18425298 -0.13747315 -0.30652827 0.03784117 -0.23501332

fc2.bias f4 [6]
00000000: 9ed4 18bf 17ac 00bf 7f89 e8be 4314 04bf
00000010: 1658 9dbe c625 02be
-0.5969943 -0.5026259 -0.454174 -0.51593417 -0.30731267 -0.12709722
