datasets/DQN_test/dqn-model1.pt (torch, 262632 bytes, 4 tensors)

weight f4 [128, 500]
000000 52 ae e4 bb a6 67 61 3d c8 07 a3 3d ad 03 fb 3d
       -0.0069787884 0.055030487 0.079604685 0.122565605
000010 8c c3 9c 3e 07 ff 0d bd 0b 85 98 3e 26 27 c1 3e
       0.3061794 -0.03466704 0.29789004 0.3772518
000020 3e 91 62 3e ff 9f 67 3e 91 c2 e1 3c 22 40 c5 3e
       0.22125718 0.22619627 0.027558597 0.38525492
000030 2f 3a e4 3e 81 0c b5 3e 14 41 a1 3e 9a 6c a2 3c
       0.4457564 0.35361102 0.31494963 0.019827176
000040 b7 3d 7f 3f ef e0 a0 3e 12 f3 d5 3e cb 61 cb 3e
       0.99703544 0.3142161 0.4178701 0.39723048
000050 64 dc 85 3c a4 e6 77 3e ae 38 82 3e 79 54 7a 3e
       0.016340442 0.24209076 0.25433868 0.24446286
000060 e5 54 e3 3e 0c 7e 11 bd 2c 4b 6c 3e 6f 72 d0 3e
       0.44400707 -0.0355206 0.23075551 0.40712306
000070 77 27 5f 3e a3 c3 d3 3e 6b fe 13 3c a6 5d 86 3e
       0.21792398 0.41360196 0.009032826 0.26243323
000080 f6 70 a3 3e cd bc b8 3e 61 15 c7 3e a7 b5 d8 3c
       0.3192212 0.36081544 0.38883498 0.026453806
000090 e5 44 ff bd 23 4a ad 3e 68 06 7f 3e b6 36 68 3e
       -0.124643125 0.33845624 0.24904788 0.2267712
0000a0 a3 db da bc 4c a0 e8 3e 2e fa dc 3e ef f1 8f 3e
       -0.02671606 0.45434797 0.43159622 0.28114268
0000b0 da da cf 3e d3 35 b2 bb f5 c1 62 3e 72 be 72 3e
       0.40596658 -0.0054385453 0.22144301 0.23705462
0000c0 1a ad bf 3e 3e 83 ba 3e d8 8e 31 bd 43 03 13 3f
       0.37436754 0.36428255 -0.043349117 0.5742685
0000d0 51 a7 8d 3e 58 c7 c9 3e 25 24 f0 3e 5b d6 17 3d
       0.27666715 0.394099 0.46902576 0.03706966
0000e0 62 54 56 3e 7e bc bc 3c 86 64 50 3e 4f de 98 3e
       0.20930627 0.023039099 0.20350847 0.29857108
0000f0 80 4a 0b bd 92 cb a7 3e 3c 25 b3 3e 4b 3a 72 3e
       -0.034006596 0.327725 0.34989345 0.2365505
000100 d2 db 94 3e 43 af 0a bc f0 9e a5 3e d1 d8 03 3e
       0.2907396 -0.008464637 0.32347822 0.12875678
000110 b2 32 b3 3e 1d d7 c0 3e 5c 75 f8 bc ce 00 e0 3e
       0.34999615 0.37664118 -0.030329399 0.43750614
000120 73 ba b3 3e 88 fe bc 3e e7 d8 92 3e fb 4a ac 3b
       0.35103187 0.36912942 0.28681108 0.005257962
000130 b6 21 90 3e 7e 5a e8 bd bb 02 5b 3e c8 b1 82 3e
       0.2815072 -0.11345385 0.2138776 0.2552626
000140 fa 8a 03 bd 2d 38 a5 3e 68 1c 8b 3e c3 f3 ec 3e
       -0.03211496 0.3226942 0.2717011 0.46279725
000150 b8 5c 54 3e 3c 30 e2 bc 28 7a ec 3c 3c 33 1d 3d
       0.20738494 -0.02761089 0.028866842 0.03837894
000160 79 bf 9a 3e f9 90 a9 3e 6e 8f 7b bc 7e 0f c8 3e
       0.30224207 0.33118418 -0.0153540205 0.3907432
000170 2d 78 bc 3e e3 1c 92 3e e4 ff a5 3e 45 02 1e 3c
       0.36810437 0.28537664 0.32421792 0.009644096
000180 2a f1 c6 3e 06 7d 92 3e 48 61 dc 3e c3 68 cb 3e
       0.3885587 0.2861101 0.4304297 0.39728364
000190 f0 42 eb bc de d2 5d 3e 21 af a5 3e 25 ac c7 3e
       -0.028718442 0.2166247 0.32360175 0.38998523
0001a0 81 dd c1 3e 90 1c 09 bd 92 11 af 3e da e6 69 3e
       0.37864307 -0.033474505 0.34193093 0.22841969
0001b0 9b de 4c 3e 9c e8 c9 3e 8a a8 ed bc 58 22 fc 3e
       0.20006792 0.3943528 -0.02901103 0.49244952
0001c0 4f 94 9d 3e 3f f5 af 3e cd 11 a3 3e 74 0e 0f 3d
       0.30777213 0.34366795 0.31849518 0.034925893
0001d0 5c 37 1d bf 3a d9 32 3e 7a 8e 33 3e 6a 64 38 3e
       -0.61412597 0.17465678 0.17534819 0.18007055
0001e0 2c a0 9d bb e9 52 66 3e 85 5e 8a 3e 8e 19 95 3e
       -0.0048103537 0.22492565 0.27025238 0.2912106
0001f0 fb 32 a1 3e 42 6e 11 bd 03 0c af 3e 0f 07 ac 3e
       0.31484208 -0.03550554 0.34188852 0.33599135
000200 9f f4 52 3e 78 6e a3 3e 33 33 be 3c b0 42 a0 3e
       0.20601128 0.31920218 0.023217773 0.3130088
000210 37 b1 a7 3e 7f 4b cb 3e d1 1c ad 3e e7 6a b1 bc
       0.32752392 0.39706036 0.33811048 -0.02165742
000220 d4 a8 82 bc f7 45 85 3e 62 de 74 3e 13 ca 39 3e
       -0.015949644 0.2602994 0.23912957 0.18143491
000230 63 ce 4c bc cb 56 d7 3e 36 b6 ae 3e 94 50 bf 3e
       -0.012500378 0.42058405 0.3412339 0.37366164
000240 10 a1 a7 3e a5 5e 0b 3d 57 41 8c 3e 50 a9 be 3e
       0.32740068 0.034025807 0.273936 0.3723855
000250 49 17 83 3e c7 23 d4 3e 75 c3 a0 3a 07 27 ae 3e
       0.25603703 0.41433546 0.0012265282 0.3401415
000260 a9 04 ab 3e 2a a7 bc 3e e1 68 bd 3e b3 9d 0f 3b
       0.33401993 0.36846286 0.3699408 0.0021914064
000270 00 a9 48 3e 2a 9b 1e 3e f3 96 9d 3e ee 80 30 3e
       0.19595718 0.15488878 0.30779228 0.17236683
000280 c3 c7 28 bd 63 9a 9e 3e 1c a7 c6 3e 25 50 e2 3e
       -0.041206133 0.30977163 0.3879937 0.4420177
000290 5d 88 72 3e 18 5f 08 bd b3 98 9e 3e eb 9a 50 3e
       0.23684831 -0.033293813 0.30975875 0.20371597
0002a0 d1 ad 59 3e c1 2b ab 3e e6 48 8e 3c cc ef 97 3e
       0.21257712 0.3343182 0.017368745 0.29675138
0002b0 29 94 ab 3e ae 58 a1 3e bd c4 a6 3e 24 47 b9 bc
       0.33511475 0.3151297 0.32571974 -0.02261693
0002c0 4c be d8 3d fb ef b4 bb 9b 30 5c 3e 38 0b 3e 3e
       0.10583171 -0.005521772 0.21502917 0.18558967
0002d0 ea 69 09 bd 4b 79 d2 3e 5c b7 96 3e c0 a2 9a 3e
       -0.033548273 0.41108164 0.29436767 0.30202293
0002e0 18 5c 8f 3e f2 31 14 3d 15 5c c3 3e e6 cf 96 3e
       0.2799995 0.036180444 0.3815619 0.2945549
0002f0 65 95 b0 3e 29 fe 91 3e 6b 7d 0d bc e1 bf e1 3e
       0.3448898 0.2851422 -0.008635859 0.44091704
000300 00 e1 a9 3e f6 a7 a1 3e 5c 62 75 3e a8 2e ce 3a
       0.33179474 0.31573457 0.23963302 0.0015730457
000310 f2 c0 80 3e bc 8c ed 3a d3 1f 85 3e bb ed 3e 3e
       0.25147206 0.0018123607 0.26000842 0.18645374
000320 18 54 37 bc 42 47 41 3e fa 74 a4 3e dc 9c c1 3e
       -0.011189483 0.18874839 0.32120496 0.37814987
000330 07 3d 95 3e 9e ff 25 3d b6 88 79 3e c1 bd 90 3e
       0.29148123 0.04052698 0.24368557 0.2826977
000340 94 14 d8 bd 2b 00 60 3e 08 64 09 3c d2 2e de 3e
       -0.105508 0.21875064 0.008385666 0.43395096
000350 97 d8 b8 3e 90 18 be 3e 44 10 cc 3e 91 b3 8f 3c
       0.36102745 0.37128115 0.3985616 0.017541679
000360 c0 b4 d1 be a0 51 a3 3e 7f cb 96 3e 9c 52 9b 3e
       -0.40958214 0.31898212 0.2945213 0.30336463
000370 fe 60 17 bd c1 34 4d 3e b1 43 aa 3e 29 33 c5 3e
       -0.036957733 0.20039655 0.3325477 0.38515595
000380 31 95 9c 3e 3a 67 3f bc ed 4d af 3e a8 34 b6 3e
       0.30582574 -0.011682326 0.3423914 0.3558705
000390 38 6b bc 3d 3b d4 9f 3e 27 79 07 3d d2 6d 83 3e
       0.09200138 0.31216606 0.033074524 0.25669724
0003a0 4a 62 e2 3e 0a d2 dd 3e 28 60 9c 3e 45 d7 df bb
       0.44215614 0.4332431 0.3054211 -0.006831082
0003b0 21 28 a2 b9 2e de 29 3e a4 a7 5d 3e 44 aa 73 3e
       -0.00030928946 0.16588661 0.21645981 0.2379542
0003c0 0d d0 18 bd 05 be 91 3e 53 4c ae 3e 3d 72 b2 3e
       -0.037307788 0.28465286 0.34042606 0.34852782
0003d0 df 7b 48 3e 97 a1 30 3b 0a e8 7f 3e 14 aa 85 3e
       0.19578503 0.0026951784 0.2499086 0.26106322
0003e0 da 17 3e 3d da a9 bf 3e ef ae 06 bd bd 5b 80 3e
       0.046409465 0.37434274 -0.032881673 0.2506999
0003f0 0d 83 8c 3e 51 17 8d 3e d5 08 8f 3e 7f b4 b3 3c
       0.27443734 0.27556852 0.27936426 0.021936653

bias f4 [128]
000000 ae ed 1a 3f f8 83 e8 3e c7 7d b3 3e 78 5e d9 3e
       0.6051892 0.45413184 0.35056898 0.42454886
000010 b9 d7 af 3e 1a 55 4c bd 53 f8 b3 3e 06 f5 cf 3e
       0.3434427 -0.049885847 0.35150394 0.40616626
000020 01 43 65 bd ee df 8d 3e b4 61 88 3e ba 46 25 3f
       -0.055972103 0.27709907 0.26637042 0.64561045
000030 3d f6 4d 3f c0 22 c3 3e da 7e 6a 3e 6d a2 88 3e
       0.80453855 0.3811245 0.22899953 0.2668642
000040 26 30 51 3f c3 13 81 bd 03 38 97 3e 7f 0e ce 3e
       0.81714094 -0.063025974 0.2953492 0.40245435
000050 57 b5 74 3e fc fa 80 3e e9 05 03 3e 02 0b b1 3e
       0.238973 0.25191486 0.12795223 0.3457871
000060 e0 01 aa 3e 13 3d 41 bd 69 7a 9d 3e 8d e1 76 3e
       0.33204556 -0.047177386 0.30757454 0.24109478
000070 65 c0 57 bd 2b b5 b5 3e 85 2d 72 bd ba b1 ac 3e
       -0.052673716 0.35489783 -0.059125442 0.33729345
000080 4b cc 47 bd 44 57 87 3e 9a e9 9b 3e d9 21 8c 3e
       -0.048778813 0.26433766 0.3045166 0.27369574
000090 b4 a9 4e 3e 8d 54 9a 3e 50 bf 85 3e 6b ff f4 3e
       0.20181924 0.30142632 0.26122522 0.47851118
0000a0 b0 e8 56 bd 4f c0 a2 3e 5f 7d 7f 3e 5e 13 66 3e
       -0.052468 0.31787345 0.24950169 0.22468325
0000b0 1e 0d c2 3e 5c a2 a9 3e ca 1c 4a bd 05 a0 a4 3e
       0.37900633 0.33131683 -0.04934386 0.32153335
0000c0 ec 0d 00 3f 4a 68 78 3e 2f 96 8d 3e 08 b1 8a 3e
       0.50021243 0.24258533 0.27653643 0.2708819
0000d0 0c 5b 43 bd f7 da 8c 3e 0d b1 b9 3e a3 95 27 3f
       -0.04769425 0.27510807 0.36267892 0.654627
0000e0 27 d1 68 3e 5a f8 67 3e 79 28 8f 3e 15 d1 09 3f
       0.22736035 0.22653332 0.27960566 0.5383466
0000f0 ec 41 9b 3e 4e 64 51 bd b8 1a ab 3e 00 07 95 3e
       0.30323732 -0.05112105 0.33418822 0.29106903
000100 32 8d 85 3e 9c 02 86 3e 8b 6f 89 3e 0b 5e 53 3e
       0.26084286 0.26173866 0.26842913 0.20641343
000110 cb 62 9c 3e 30 35 a2 3e 08 9b 5b 3e 5d b0 87 3e
       0.30544123 0.31681204 0.21445858 0.26501742
000120 5b d6 8e 3e e8 9c 51 3e be fb 51 3e b7 17 8b 3e
       0.27897915 0.20470011 0.20506188 0.2716653
000130 ef 8f 5b bd cb c8 66 bd c3 e4 9f 3e c8 db 2a 3f
       -0.053604063 -0.056343835 0.3122922 0.6674161
000140 ca 7c b7 3e 63 74 29 3e 4d 23 66 3e d5 20 60 3e
       0.35837394 0.16548304 0.22474404 0.21887524
000150 9e bf 2f 3e f6 a6 3d bd 7c 2c b2 3e 59 80 76 3e
       0.1716294 -0.046301804 0.34799564 0.24072398
000160 68 98 ed 3e 6b f7 66 3e 59 72 8e 3e 4f dd 7b 3e
       0.4640534 0.2255532 0.27821615 0.24596141
000170 72 af aa 3e 9a d2 b9 3e 85 48 e6 3e 11 ab 10 3f
       0.3333698 0.3629349 0.44977203 0.56511027
000180 43 97 54 bd 48 e2 aa 3e 40 3a 2c 3e 93 fc ad 3e
       -0.051902067 0.33375764 0.16819096 0.3398176
000190 c2 a9 75 bd ea ae 4c bd fc 2f 09 3f 02 7c a8 3e
       -0.059976347 -0.0499715 0.53588843 0.3290711
0001a0 66 07 b1 3e fc 8e 84 3e 53 59 3c bd 3f b3 31 bd
       0.34575957 0.25890338 -0.045983624 -0.043383833
0001b0 2c 07 c4 3e c8 4a 63 3e de 2a 90 3e 5d 9e 94 3e
       0.38286722 0.22196496 0.28157705 0.29027072
0001c0 ce 92 84 3e 98 ae 28 3e 05 0e 43 bd 7f 0a 46 3f
       0.25893253 0.16472852 -0.047620792 0.77359766
0001d0 dc ec 7b 3e cd c9 b8 3e 6e ec c1 3e a2 bd ba 3e
       0.24602073 0.36091462 0.37875694 0.36472803
0001e0 e9 06 6e 3e 6e 98 3b bd b2 2d 0f 3f 27 5c 78 3e
       0.23244824 -0.045799665 0.559291 0.24253903
0001f0 a3 d4 89 3e fc ba 90 3e c4 ed b8 3e 6f a2 33 bd
       0.2692004 0.28267658 0.361189 -0.04385608

weight f4 [6, 128]
000000 7a 72 ee bd ce 50 bb be 71 9e 92 be 12 4e af be
       -0.116429284 -0.36585087 -0.28636506 -0.3423925
000010 53 8b b2 be 6b ad ab bd d9 50 61 be dc be c3 be
       -0.3487192 -0.08382686 -0.22003497 -0.38231552
000020 3d 0a 5c bd b2 39 7f be da 6a b4 bd b1 19 f3 be
       -0.0537207 -0.24924353 -0.08809443 -0.47480538
000030 17 cc 34 bd 6a 2c a1 be a7 bc ef be f1 91 03 be
       -0.044139948 -0.31479198 -0.46823618 -0.12848641
000040 00 de 15 bf 14 3a ba bd b8 41 a0 be a1 b6 a1 be
       -0.5854187 -0.09093109 -0.3130014 -0.31584647
000050 31 5d 87 be fa 3a fd bd d5 85 33 be 75 6f 95 be
       -0.26438287 -0.123647645 -0.17531522 -0.29186597
000060 f3 de 93 be 21 b1 ab 3d 6c 1a cb bd 1a 37 76 3c
       -0.28881034 0.08383394 -0.09917149 0.015027786
000070 c3 6c 0b 3d 28 51 73 be 10 6d 68 3c e9 d9 b2 be
       0.03403927 -0.23761427 0.014186159 -0.34931877
000080 0e 8d 6e 3d 7a 4c 3c be d3 4b d0 be 62 f7 f4 bc
       0.05823999 -0.18388548 -0.4068285 -0.029903118
000090 e8 20 9e be 99 f3 43 be 5c 9c d4 bd ee 24 99 be
       -0.3088448 -0.19135894 -0.10381386 -0.29910988
0000a0 7d 52 40 bd bb 4d ac be 7e ff 99 bd 7c 38 3f be
       -0.046953667 -0.33653054 -0.075194344 -0.18673891
0000b0 6e 56 b9 be c5 d2 b6 be 9a ef 25 3d e4 c9 9d be
       -0.36198753 -0.3570768 0.040511705 -0.30818093
0000c0 f0 5d 1d 3e b3 57 a2 bd e9 05 30 bd db 7e 0d be
       0.15367866 -0.079268835 -0.042974386 -0.13817923
0000d0 d9 d4 88 bc e8 38 65 be b6 26 89 be f1 6e 11 bf
       -0.016703056 -0.2238499 -0.26787347 -0.5680991
0000e0 3e 99 dc 3d 1f 85 88 bc 5c 16 34 be 74 89 b5 be
       0.10771416 -0.01666504 -0.17586654 -0.3545643
0000f0 85 d5 79 be 13 c4 57 3c c5 6c 63 be a6 bd ab be
       -0.24397857 0.013169306 -0.22209461 -0.33543128
000100 95 5c 1c be 9c cc 0b be ef 65 d1 be 82 42 b3 bc
       -0.15269692 -0.13652271 -0.40898082 -0.0218823
000110 a8 92 26 be bd 10 65 be 47 d1 36 be 34 6e 1e be
       -0.16266882 -0.22369666 -0.1785327 -0.15471727
000120 db 51 0b be 83 59 6c be 2a b8 37 be b2 1f fa bd
       -0.13605444 -0.23081021 -0.17941347 -0.12213077
000130 d7 5a 87 3c 41 92 81 bc e9 1a c0 be 47 fd d6 be
       0.016522808 -0.01581681 -0.3752053 -0.4199011
000140 08 19 6a be 4b d5 79 be ed 7a e0 bd 55 d1 a3 be
       -0.22861111 -0.24397771 -0.10960946 -0.31995645
000150 ef 16 8b 3d 98 97 ad bd 14 65 5f be d0 d8 df bd
       0.067914836 -0.0847618 -0.21815902 -0.109300256
000160 7f f6 c0 be 00 4b 15 be e9 9e cb be e1 d9 8f be
       -0.37688062 -0.14579391 -0.39769676 -0.28095916
000170 0f c4 8f be bc 33 52 be 90 bc a3 be ce 25 5c be
       -0.28079268 -0.20527548 -0.319798 -0.21498796
000180 5b be cc bd d2 3f 50 be f9 9a 87 bd fd 0f 02 be
       -0.09997245 -0.20336846 -0.066213556 -0.12701412
000190 e1 bd 9f bd d7 69 1c bd fd 23 c1 be 75 be e7 bd
       -0.077998884 -0.038186874 -0.3772277 -0.11315624
0001a0 e7 9d ca be 82 30 dd bd ee 5e 52 3d d0 8f 82 3b
       -0.39573595 -0.10800268 0.051360063 0.003984429
0001b0 6c bd b7 be 0d a0 c8 bd 66 b4 0c be 6c e4 59 be
       -0.35886705 -0.09796152 -0.13740692 -0.21278542
0001c0 44 e6 f3 bd 18 e6 8e bd 70 57 a6 3d 46 23 5a bd
       -0.11909154 -0.06977481 0.08122146 -0.053256296
0001d0 65 4f 05 be 18 6c 8e be 2d ac d4 be 61 9d 9c be
       -0.13018568 -0.27816844 -0.4153761 -0.3058882
0001e0 48 d2 e2 3d 42 cb 82 bd 38 0c b2 be 9f f9 73 be
       0.11075264 -0.063864246 -0.34774947 -0.23825692
0001f0 8a c5 5b be 03 6b 32 bb 67 92 c6 be 55 c8 19 3d
       -0.21462074 -0.0027224428 -0.3878357 0.037544567
000200 35 b2 9b be b1 68 60 be 19 83 be be cd d2 bf be
       -0.304094 -0.21914937 -0.37209395 -0.37465516
000210 ad e9 ab be f6 66 36 bc 1e 56 90 be c8 e8 be be
       -0.33576718 -0.011132946 -0.28190702 -0.37286973
000220 67 dd f2 bc e2 4c 4b be 35 c7 8b be 24 15 b0 be
       -0.029646588 -0.19853547 -0.2730042 -0.3439113
000230 fc f8 57 bf 8f 2a ae be 8a 5c d4 3e 6a 46 2f be
       -0.84364295 -0.34016845 0.41476852 -0.17116705
000240 56 45 03 bf 39 5c 00 bd 5e ec 1d be 4b c5 a4 be
       -0.51277673 -0.03133795 -0.15422198 -0.32181773
000250 64 5d 1b 3f 97 cb 88 be 22 e5 fc bc 94 e9 85 be
       0.6068938 -0.26717827 -0.030870978 -0.26154768
000260 f4 79 9c be c0 01 aa 3d af 7d d5 be bd c5 a3 be
       -0.30561793 0.08301115 -0.4169745 -0.319868
000270 10 7e 98 bd e2 fc 94 be 1e a8 26 bd 8f 9d 76 bd
       -0.074459195 -0.29099184 -0.040687673 -0.060208853
000280 30 be 32 3c c9 2e be be 8a 9a 3f be 32 f1 b7 be
       0.010909602 -0.3714507 -0.18711296 -0.35926205
000290 5e d8 d2 bc 66 6d 11 be 19 b8 4e be b1 e7 d1 be
       -0.025737938 -0.14201888 -0.20187415 -0.4099708
0002a0 64 74 72 bc 5e b6 da bd ae 81 97 be 1e f8 5b 3e
       -0.0147982575 -0.10679315 -0.29591125 0.21481368
0002b0 79 73 bc be 89 ec 95 be 6e c9 ae 3b 6a 75 53 be
       -0.3680685 -0.29282025 0.005334071 -0.20650259
0002c0 89 ff c6 be a1 d6 a3 be 6d d8 b7 be 88 7a 5c bf
       -0.38866833 -0.31999686 -0.35907307 -0.8612447
0002d0 2c 81 8b bd 66 ab 86 be e7 c1 c8 be 8b 4e 36 3f
       -0.06811747 -0.26302642 -0.39210436 0.712136
0002e0 80 51 38 bf 03 97 fd be 1b fd 95 be 09 af c3 be
       -0.7199936 -0.49529275 -0.29294667 -0.3821948
0002f0 10 d2 ab be 8a c7 32 bc e4 03 89 be 54 17 52 bf
       -0.33558702 -0.010911832 -0.2676078 -0.82066846
000300 e3 24 96 be 01 5a 31 be c3 9c 4c 3e dd 7e 57 be
       -0.29325017 -0.1731949 0.19981675 -0.21044488
000310 a4 c7 8e be 65 75 aa be ee ec 58 be ee c9 9e be
       -0.2788669 -0.3329269 -0.21184132 -0.31013435
000320 b6 4c b6 be 48 c6 9a 3e c2 de 30 be 84 ad c0 be
       -0.356054 0.30229402 -0.17272475 -0.37632382
000330 ef 8c 8b bd fb e1 33 3b 0d ae 19 be 09 7e af be
       -0.0681399 0.0027447927 -0.15007801 -0.34275845
000340 90 9c bb be 1c b4 bf 3e e4 86 53 be fd f2 f3 3e
       -0.36642885 0.374421 -0.20656925 0.47646323
000350 87 c4 32 be 7d e4 98 3d 70 95 c1 be 45 8b 8a be
       -0.17457782 0.07465456 -0.37809324 -0.2705938
000360 4d c3 da be 82 1d b5 bc b1 b6 58 bd 57 cc 07 be
       -0.42727128 -0.022108797 -0.052908603 -0.13261543
000370 9c 85 95 be 2f b7 be be 7b 9b c3 be cf 57 a1 bd
       -0.29203498 -0.37249133 -0.3820456 -0.07878076
000380 3c bf 5e 3c bd 6b 92 be a9 ed 31 be 55 db ba be
       0.0135953985 -0.28597823 -0.17375816 -0.36495462
000390 42 c3 46 bd 4a 3e 23 3d ae a4 b1 be 96 80 ab be
       -0.048526056 0.039854325 -0.34695953 -0.3349654
0003a0 f0 99 0a be c8 de 22 be 3f 14 a6 3c c2 86 74 3d
       -0.13535285 -0.15905297 0.020273326 0.059698828
0003b0 ae d5 a1 be 24 2d 5a be be b7 0f be 17 e0 c0 be
       -0.31608337 -0.21306282 -0.14034936 -0.37670967
0003c0 9c fa 5c be 6b e3 63 bd 16 06 14 3c f0 da 07 bd
       -0.21579975 -0.055636805 0.009034654 -0.03316778
0003d0 a4 6c ac 3e e0 5b d0 be e3 99 3b be 52 97 c5 be
       0.33676636 -0.40695095 -0.18320422 -0.3859201
0003e0 20 24 1f bf 10 de 7f bc 48 24 48 be b7 5b 59 bd
       -0.621645 -0.015616909 -0.1954509 -0.05306598
0003f0 52 80 bf be 67 97 96 be f9 29 84 be ab e1 bc 3c
       -0.37402588 -0.29412386 -0.25813273 0.023056826

bias f4 [6]
000000 4e bd 04 bf 15 6c 9f be 65 d7 f2 be 3b 9c b9 be
       -0.51851356 -0.31137148 -0.47429958 -0.36252007
000010 a1 4c 00 be 54 4d af 3e
       -0.12529232 0.34238684
