datasets/DQN_test/dqn-model1.pt (torch, 262632 bytes, 4 tensors)

weight f4 [128, 500]
0	0xbc82617a	-0.015915621
1	0x3cdabafb	0.026700487
2	0x3cede1f6	0.02903841
3	0xbd1a5227	-0.037676003
4	0xbd1a1e7d	-0.037626732
5	0xbcea7c74	-0.028623797
6	0x3c5e8b70	0.013583049
7	0xbd12d140	-0.035844088
8	0x3bca55fb	0.0061748005
9	0x3d2e68ae	0.0425803
10	0xbd156643	-0.036474477
11	0x3d28b85e	0.04119145
12	0x3ce45ab1	0.027875276
13	0xbd1a4202	-0.037660606
14	0xbc48b55b	-0.01225027
15	0xbc62f490	-0.013852254
16	0xbd273e46	-0.040830873
17	0x3c386670	0.011254892
18	0xbcf6a76c	-0.03010913
19	0xbd24fd81	-0.040280823
20	0xbcad3569	-0.021143632
21	0xbd2a7595	-0.04161604
22	0x3c87cd3f	0.016577361
23	0x3be72b77	0.007054742
24	0xbc933af9	-0.017972456
25	0x3d240137	0.04004022
26	0x3d02efc9	0.03196696
27	0xbd3594c2	-0.04433132
28	0xbd0e0de3	-0.034681212
29	0xbcb60403	-0.02221871
30	0x3d265523	0.040608536
31	0x3d0e0c9e	0.03468
32	0xbd2e723b	-0.042589407
33	0xbaee73f1	-0.0018192512
34	0x3baa601e	0.0051994463
35	0xbd2bed5f	-0.04197442
36	0xbd0cce80	-0.03437662
37	0x3d1d2776	0.03836771
38	0x3ce7bb86	0.02828766
39	0x3cfdbf60	0.030975044
40	0xbcce75ce	-0.025202658
41	0xbc803541	-0.015650393
42	0x3b5cd9a4	0.003369906
43	0xbca51162	-0.02014989
44	0x3c3754ca	0.011189649
45	0x3d12c20c	0.03582959
46	0x39aeeb52	0.00033363194
47	0x3c8244aa	0.015901882
48	0x3cf4d953	0.029888785
49	0x3cdf6865	0.027271459
50	0xbca2c230	-0.019867986
51	0x3d2fb34f	0.04289561
52	0xbd28450d	-0.041081477
53	0x3b9d7994	0.004805753
54	0xbd0867d2	-0.033302136
55	0xbc90a2b1	-0.017655702
56	0xbc0942e5	-0.008377765
57	0x3abda080	0.0014467388
58	0x3cfe32de	0.031030115
59	0xbcb5d305	-0.022195349
60	0x3b5d2c8d	0.0033748478
61	0xbd173b9a	-0.036922075
62	0xbc8bae85	-0.01705099
63	0xbc0218df	-0.0079405
64	0xbb937a94	-0.0045006964
65	0x3d114a13	0.035471033
66	0x3cbbee47	0.022940768
67	0xbc26c73d	-0.010179338
68	0x3c496979	0.012293213
69	0x3c4dce25	0.012561356
70	0x3c354728	0.011064328
71	0xbcbf3755	-0.023341814
72	0xbd0e88ca	-0.03479842
73	0xbbd7f4a3	-0.0065904423
74	0x3c7699d6	0.015051326
75	0xbd1bab6f	-0.03800529
76	0xbd0959f8	-0.033533067
77	0x3cbae4b3	0.02281413
78	0x3d1f8cd4	0.038952664
79	0xbc857890	-0.01629284
80	0x3d0fbb44	0.0350907
81	0x3c299791	0.010351078
82	0xbd2fcbc7	-0.042918947
83	0xbbe4dad1	-0.0069840928
84	0x3bb24a7d	0.0054410086
85	0x3d0e8e70	0.034803808
86	0xbcec47c4	-0.028842814
87	0xbc9d87ea	-0.019229848
88	0xbaf5a6a4	-0.0018741679
89	0xbcf06265	-0.029343793
90	0x3c0d92e8	0.008640982
91	0xbd0cf503	-0.03441335
92	0x3d2516b4	0.040304855
93	0x3ce60409	0.028078096
94	0xbbd59502	-0.0065180073
95	0x3c920874	0.017826296
96	0x3c849319	0.016183423
97	0x3c5bc486	0.013413554
98	0xbba51458	-0.0050378256
99	0xbbca0238	-0.0061648153
100	0x3ce43630	0.02785787
101	0x3cc6ad89	0.02425267
102	0x3d155e8c	0.03646712
103	0xbd34fa17	-0.044183817
104	0x3cde0120	0.027100146
105	0xbc21b5ab	-0.009869973
106	0x3d0bdfcd	0.03414898
107	0xbd2b1e7e	-0.041777126
108	0x3d1d69a7	0.038430836
109	0xbcbee391	-0.023301871
110	0x3be28557	0.006912868
111	0x3c1e7cb8	0.00967329
112	0x3d212360	0.039340377
113	0x3d2757b6	0.040855132
114	0xbcd995be	-0.02656066
115	0xbd2b2262	-0.041780837
116	0xbcb95dd9	-0.022627758
117	0x3c86e09d	0.016464526
118	0xbc9f2427	-0.019426418
119	0xbd21cace	-0.03950005
120	0x3c084bc3	0.008318844
121	0x3d1f3edc	0.038878307
122	0xbca34b7e	-0.019933458
123	0xbd1a7b5e	-0.03771531
124	0xbcb68647	-0.022280825
125	0xbc15f149	-0.009151765
126	0x3d36a060	0.04458654
127	0x3c149d67	0.009070731
128	0x3d288600	0.041143417
129	0xbc99c80f	-0.018772153
130	0xbaab4d0d	-0.0013069228
131	0xbd049480	-0.032368183
132	0xbd33b1a4	-0.043870583
133	0x3d0e5578	0.034749478
134	0xbca74f78	-0.020423636
135	0xbc30cc24	-0.010790858
136	0x3ba69a95	0.0050843456
137	0x3b9356ab	0.0044964156
138	0xbc41662b	-0.011804144
139	0xbbe6f1af	-0.007047854
140	0xbd261256	-0.04054483
141	0xbc971bec	-0.018445931
142	0x3c1bd2fc	0.009510752
143	0xbd2ce716	-0.04221257
144	0x3cc87235	0.02446852
145	0x3d0f5d18	0.03500089
146	0x3c75330f	0.014965787
147	0xbd00ce8d	-0.031446982
148	0xbc8fec4f	-0.017568735
149	0xbbb23324	-0.0054382253
150	0xbc9e67a2	-0.019336525
151	0xbb8e1aa3	-0.0043366714
152	0x3d2ae925	0.04172625
153	0x3cf7f32a	0.030267317
154	0x3b96fc3a	0.0046077045
155	0x3b2d7ce0	0.0026472136
156	0xbcb6f662	-0.022334281
157	0xbc09ca3e	-0.008410035
158	0x3b9bd10a	0.004755144
159	0x3b945e36	0.0045278324
160	0x3d321c46	0.043483995
161	0x3c21646f	0.009850605
162	0x3d2c98af	0.042137798
163	0x3b731650	0.0037092157
164	0xbc00548f	-0.00783266
165	0xbc338158	-0.010956131
166	0xbcb58e60	-0.022162616
167	0xbc85cbf2	-0.0163326
168	0x3ca693aa	0.020334084
169	0xbd11ea58	-0.03562388
170	0x3bd27a71	0.0064232876
171	0x3d18d3f4	0.03731151
172	0x3b0640fe	0.0020485516
173	0xbcbd7ce7	-0.023130847
174	0x3d05fbb2	0.03271074
175	0x3c13878c	0.009004485
176	0xbbb5f4ec	-0.0055528786
177	0x3cff611b	0.031174233
178	0x3d2b4ab7	0.0418193
179	0xbd1a8cf7	-0.03773209
180	0xbd04eed2	-0.03245432
181	0x3b9484e5	0.004532444
182	0x3ce8dfec	0.028427087
183	0x3ca406d5	0.020022789
184	0x3b5af104	0.0033407817
185	0x3c83cf43	0.016090041
186	0xbcdea97a	-0.027180422
187	0x3d1400be	0.03613352
188	0x3d19343a	0.037403323
189	0x3d15a465	0.036533732
190	0x3d21cf04	0.039504066
191	0x3af0c746	0.0018369935
192	0xbc76652d	-0.015038771
193	0xbbf815a8	-0.007570941
194	0x3c28cc1b	0.010302569
195	0xbd2b3c62	-0.041805632
196	0x3c8dadd1	0.017294796
197	0xbc0574dd	-0.008145538
198	0xbd26b1d5	-0.040696938
199	0xbd2ef259	-0.04271159
200	0xbcf34500	-0.029695988
201	0xbba817d5	-0.005129794
202	0x3c2c8236	0.010529092
203	0x3d20a697	0.039221372
204	0x3cbdcf06	0.023170006
205	0xbd344328	-0.044009358
206	0x3d03953c	0.032124743
207	0xbc5b25c3	-0.013375702
208	0x3b55708f	0.003256831
209	0xbcecdf68	-0.028915122
210	0x3d1c313e	0.0381329
211	0x3caae79a	0.02086239
212	0xbc9443f2	-0.018098805
213	0xbc918ccf	-0.017767338
214	0xbbee822a	-0.0072787004
215	0x3b77a320	0.003778644
216	0x3cd6df27	0.026229454
217	0x3b09a034	0.002100003
218	0xbd0f10b9	-0.034928057
219	0x3cff53cb	0.031167885
220	0x3d28415b	0.041077953
221	0x3d291415	0.041278917
222	0x3b707cc4	0.003669546
223	0x3c86bb18	0.016446635
224	0xbca72242	-0.020402078
225	0x3cdf96f3	0.027293658
226	0x3d01662a	0.031591572
227	0x3c2e95dc	0.010655846
228	0x3cef0047	0.029174937
229	0x3cd429bc	0.025898807
230	0xbc89f3a2	-0.016839806
231	0x3c951c86	0.018202078
232	0xbc8d7d0a	-0.017271537
233	0x3b1a12e6	0.00235098
234	0x3cbfc899	0.023411082
235	0xbc565b75	-0.0130833285
236	0x3c12ece7	0.008967615
237	0x3cad8d63	0.021185583
238	0x3bebbc64	0.007194089
239	0xbc11ba78	-0.008894555
240	0x3cbbc0a1	0.022919001
241	0xbd09e613	-0.03366668
242	0xbbb323b3	-0.005466902
243	0x3ca88e2d	0.020575607
244	0x39734a30	0.00023201923
245	0xbc286c6c	-0.010279756
246	0x3c8df02c	0.017326437
247	0xbc9821bb	-0.018570771
248	0xbcde66bb	-0.027148595
249	0xbbfb0030	-0.0076599345
250	0x3d13c9f5	0.036081273
251	0x3d09b386	0.033618473
252	0xbcd9967b	-0.026561012
253	0x3c8f0f54	0.017463364
254	0xbbbe1161	-0.0058004116
255	0x3d08383b	0.03325675

bias f4 [128]
0	0xbd493bf3	-0.049129438
1	0x3e9a39f9	0.30122355
2	0x3ee6a607	0.45048544
3	0x3ea4c7cf	0.32183692
4	0x3ea49eab	0.32152304
5	0xbe9b8c1d	-0.30380335
6	0x3fbdc89e	1.4826849
7	0x3ec5135f	0.3849134
8	0x3e6fad41	0.23405935
9	0x3ed5ab22	0.41732126
10	0xbd419441	-0.047260527
11	0x3e9dc583	0.30814752
12	0xbe917b81	-0.28414539
13	0x3eba92b9	0.36440066
14	0x3e8a0eca	0.26964408
15	0x3ea2c20c	0.3178867
16	0x3eccc36b	0.39992842
17	0x3ef9c85f	0.48785684
18	0x3eb01a88	0.34395242
19	0x3f0515be	0.519863
20	0x3e9e3cd6	0.3090579
21	0xbdce6d7a	-0.10079475
22	0x3e63e392	0.2225478
23	0xbdf1972c	-0.11796412
24	0xbd40550f	-0.04695612
25	0x3f02360d	0.50863725
26	0xbea603b6	-0.32424706
27	0x3dc7e1c4	0.09759858
28	0x3ee3338c	0.44375265
29	0xbd45f48e	-0.04832893
30	0x3fc3af9d	1.5287968
31	0x3ea9fc22	0.33200175
32	0x3e962c50	0.29330683
33	0x3ef2728f	0.47353026
34	0x3e69f5cc	0.2284767
35	0x3e94fbd2	0.29098374
36	0x3e71351d	0.23555417
37	0x3e7e606f	0.24841474
38	0x3e8b3c79	0.27194574
39	0x3f015ab2	0.50529015
40	0x3ea976da	0.3309849
41	0x3eab1bb6	0.3341958
42	0x3ec05e61	0.37572005
43	0x3f02918c	0.51003337
44	0x3f03368c	0.51255107
45	0x3e8fd071	0.28088716
46	0x3e9de0fc	0.30835712
47	0x3e97b545	0.29630485
48	0x3ea41c47	0.32052824
49	0x3e52d409	0.20588697
50	0x3e9ad1c3	0.3023816
51	0x3f80e018	1.0068388
52	0x3eb7c047	0.35888883
53	0x3ef1111d	0.4708337
54	0x3ed66f75	0.4188191
55	0x3f49969e	0.7874545
56	0x3ea2454a	0.31693488
57	0x3eb5b56a	0.3548997
58	0x3ef12e97	0.47105858
59	0x3eaf987f	0.34296033
60	0x3ea866fa	0.32891065
61	0xbd9c204b	-0.07623347
62	0x3ea55b24	0.32296097
63	0x3ef594fb	0.47965226
64	0x3ecfdb66	0.40597075
65	0x3e91fc5b	0.28512844
66	0x3ed03856	0.4066798
67	0x3ea2dc78	0.3180883
68	0x3fe76f75	1.8080889
69	0x3e9b13d8	0.30288577
70	0x3ebea5be	0.37235826
71	0x3eb280cb	0.34863886
72	0x3ef42927	0.47687647
73	0x3e989df1	0.29808
74	0x3ea0b51c	0.31388175
75	0xbd87ebdf	-0.06636786
76	0xbe9ed6c7	-0.31023237
77	0x3e009cfc	0.12559885
78	0x3e99c2e6	0.30031508
79	0x3e9d4e2f	0.30723712
80	0x3ebd3bcc	0.36959684
81	0x3c7a22a9	0.015267053
82	0x3dc3c3d8	0.095588386
83	0xbe5c3a37	-0.21506582
84	0x3eeacc4a	0.45858985
85	0x3eb8fe91	0.3613172
86	0x3eb095a4	0.34489167
87	0x3e8c2c53	0.27377567
88	0x3e8b52bb	0.27211556
89	0x3ed202c4	0.41017735
90	0x3ec58061	0.38574508
91	0x3ef965f4	0.48710597
92	0x3eb4e516	0.3533103
93	0x3ed842ba	0.42238408
94	0x3ec3086b	0.3809236
95	0x3ec7e3cc	0.39040983
96	0x3ef1cd62	0.47227007
97	0xbda446ef	-0.08021342
98	0x3ec7442b	0.38919196
99	0x3eae8a4a	0.3408988
100	0x3eaf7dbb	0.34275612
101	0x3e948f53	0.29015598
102	0x3e9e55e3	0.309249
103	0x3e8d7550	0.27628565
104	0x3eadda0d	0.33955422
105	0x3ea852b1	0.3287559
106	0x3ec50c3f	0.38485906
107	0x3f6ddf9b	0.9291932
108	0x3ef556cb	0.4791778
109	0x3e9c1db0	0.304914
110	0x3f815422	1.01038
111	0x3e9a38f5	0.3012158
112	0x3f030646	0.5118145
113	0x3eb4d3f3	0.35317954
114	0x3eb39b9c	0.35079658
115	0x3ea40408	0.32034326
116	0x3ea06bdf	0.313323
117	0x3e96f5c2	0.29484373
118	0x3ea323bc	0.318632
119	0x3ebc4edf	0.36778924
120	0x3e6b5c92	0.22984532
121	0xbd429574	-0.04750581
122	0x3e8c1140	0.2735691
123	0xbd7b2e50	-0.061323464
124	0x3f12a556	0.5728353
125	0x3ec0e79e	0.3767671
126	0x3e9e5c12	0.3092962
127	0x3eb2701d	0.3485116

weight f4 [6, 128]
0	0xbcef53dd	-0.029214794
1	0xbe682b46	-0.22672758
2	0xbe1c979f	-0.15292214
3	0xbb573914	-0.0032840418
4	0xbe5bdbe5	-0.21470602
5	0xbaabc208	-0.001310409
6	0x3ff1d754	1.8893838
7	0xbe7da9d7	-0.2477182
8	0xbde99fb5	-0.11407415
9	0xbcab58c0	-0.020916343
10	0x3d53591e	0.05159866
11	0xbc633959	-0.013868653
12	0xb9baca04	-0.00035627198
13	0xbe4a007d	-0.19726749
14	0xbc00c82d	-0.007860226
15	0xbcb9d110	-0.022682697
16	0xbee0c37a	-0.43899137
17	0xbdee8698	-0.116467655
18	0xbe6d7196	-0.23187861
19	0xbecadf06	-0.39623278
20	0xbca46316	-0.02006678
21	0x3d4a1d4e	0.049344353
22	0x3ef02bb3	0.4690834
23	0x3ca51086	0.02014948
24	0x3c724205	0.014786248
25	0xbeb29548	-0.34879518
26	0xba81477d	-0.0009863224
27	0xbcb04056	-0.021515053
28	0xbea72a27	-0.32649347
29	0x3d07fcb1	0.03319997
30	0x3f5bd0b3	0.85865325
31	0xbe7b6607	-0.24550639
32	0xbbe471da	-0.00697158
33	0xbe6d37d0	-0.23165822
34	0xbc164c78	-0.009173505
35	0x3b60b350	0.0034286566
36	0xbd7f5244	-0.062334314
37	0xbc25d1b1	-0.010120795
38	0xbb678c37	-0.0035331377
39	0xbe7d0f9a	-0.24712983
40	0xbe0f9691	-0.1402228
41	0xbe55cea5	-0.2087961
42	0xbd5bee78	-0.05369422
43	0xbecfab1a	-0.40560228
44	0xbe9020f3	-0.28150138
45	0xbcc308a8	-0.023807839
46	0xbd010faf	-0.031509098
47	0xbc95ac0f	-0.01827052
48	0xbd848a57	-0.06471699
49	0xbb8dc4ff	-0.0043264623
50	0xbcb52880	-0.022114038
51	0xbe315999	-0.17319335
52	0xbeb4b006	-0.35290545
53	0xbe69ed6a	-0.22844473
54	0xbdb1d9a2	-0.08684088
55	0xbdf4abbb	-0.119468175
56	0xbbbb276c	-0.0057114866
57	0xbe5a6bc4	-0.21330172
58	0xbe9b2c90	-0.30307436
59	0xbc9860ce	-0.018600848
60	0xbe54a134	-0.20764619
61	0x3c6d96cd	0.014501286
62	0xbcae7384	-0.021295317
63	0xbf33a6c4	-0.7017634
64	0xbe935a9c	-0.28780067
65	0xbcfbcad0	-0.030736357
66	0xbdb8fa03	-0.09032061
67	0xbe32e802	-0.17471316
68	0x3fb7af20	1.4350319
69	0xbdaaeeb3	-0.083463095
70	0xbdb6d9e2	-0.089282766
71	0xbceff421	-0.029291214
72	0xbd5f8b27	-0.054576065
73	0xbe298349	-0.16553988
74	0xbdb1866f	-0.08668219
75	0x3d07e8ba	0.03318093
76	0x3c7cc285	0.015427236
77	0xbb475ef9	-0.0030421598
78	0xbe43011c	-0.19043392
79	0xbd5ef1d3	-0.05442984
80	0xbe835336	-0.25649422
81	0xbb4e1559	-0.003144583
82	0xbd3149d7	-0.04328331
83	0x3d8fdccf	0.07024538
84	0x3f8737eb	1.056394
85	0xbda3bc31	-0.07994879
86	0xbe156c41	-0.14592077
87	0xbc81444c	-0.015779637
88	0xbdd72549	-0.105051585
89	0xbe9741d1	-0.295424
90	0xbe71701b	-0.23577921
91	0xbe86d10d	-0.26331368
92	0xbd95f490	-0.07322037
93	0xbe2a9380	-0.1665783
94	0xbee37995	-0.44428697
95	0xbe403232	-0.18769148
96	0x3e2ef46e	0.1708543
97	0x3ccdf203	0.025139814
98	0xbd29fe25	-0.041502137
99	0xbe782f75	-0.24236853
100	0xbd412ed5	-0.047163803
101	0x39e7e94b	0.0004423357
102	0xbcab7609	-0.020930307
103	0xbe499b2f	-0.19688104
104	0xbd7f7f2d	-0.062377144
105	0xbcf680ef	-0.030090777
106	0xbe2656b4	-0.16244012
107	0x3f63b2c0	0.88944626
108	0xbea98977	-0.3311269
109	0xbd1abec9	-0.037779603
110	0x3f9852b4	1.1900239
111	0xbe392c38	-0.18083274
112	0xbee7f39e	-0.45303053
113	0xbda427f0	-0.0801543
114	0xbdfddc3a	-0.123955205
115	0xbe1761f6	-0.14783463
116	0xbe613135	-0.21991427
117	0xbd48861b	-0.048956018
118	0xbe045d14	-0.12926131
119	0xbd9b23f4	-0.07575217
120	0xbb9db0aa	-0.0048123198
121	0x3d64c681	0.05585337
122	0xbdfad94e	-0.12248479
123	0x3d076a20	0.033060193
124	0x3f89c625	1.0763594
125	0xbe8cc831	-0.27496484
126	0xbce8798e	-0.028378274
127	0xbdda1bcc	-0.10649833
128	0xbd9eaae6	-0.0774744
129	0xbdc59eb0	-0.09649408
130	0xbe8b92ee	-0.27260536
131	0xbd37ae4b	-0.044843953
132	0xbe0cc87f	-0.13748358
133	0x3802fa52	3.1227544e-05
134	0x3fd62513	1.6730064
135	0xbd6eda8e	-0.0583139
136	0xbc44c22b	-0.012009184
137	0xbda8da36	-0.082447454
138	0xbd7e7433	-0.062122535
139	0xbd6fd5a3	-0.05855335
140	0xba7b5eb1	-0.0009589
141	0xbe6e1731	-0.23251034
142	0xbd50a500	-0.050938606
143	0xbe06fbbe	-0.1318197
144	0xbdd7580b	-0.1051484
145	0xbe49c179	-0.1970271
146	0xbdaae41f	-0.08344292
147	0xbe866c1a	-0.2625435
148	0xbc8c1510	-0.017099887
149	0xbbcba1b4	-0.006214345
150	0x3e9a165a	0.30095178
151	0xbbb73e56	-0.005592148
152	0x3d8dc07a	0.069214776
153	0xbe1b2ee0	-0.151546
154	0xb740b843	-1.1486994e-05
155	0xbbe14b9d	-0.006875469
156	0xbd8b3888	-0.06797892
157	0xbc9ebef8	-0.01937817
158	0x3fd17c6d	1.6366097
159	0xbc37edee	-0.01122616
160	0xbdde1c6b	-0.10845264
161	0xbc443e76	-0.0119777825
162	0xbe12c209	-0.14331831
163	0xbc226112	-0.009910839
164	0xbdb5ffdc	-0.08886692
165	0xbe040ac4	-0.12894732
166	0xbcaf7297	-0.021416945
167	0xbeecd684	-0.46257412
168	0xbddde3be	-0.10834454
169	0xbc8f737a	-0.017511118
170	0xbe981cb8	-0.2970941
171	0xbd96737c	-0.07346246
172	0xbec0bc82	-0.3764382
173	0xbcab43ca	-0.020906348
174	0xbdedc449	-0.11609704
175	0xbe16b955	-0.14719136
176	0xbda3de98	-0.08001441
177	0xbdf5a7bf	-0.11994886
178	0xbe249829	-0.1607367
179	0xbb7cec8e	-0.0038593146
180	0xbe83ffd1	-0.2578111
181	0xbf0dce8d	-0.55393296
182	0xbe18ae2e	-0.14910194
183	0x3f9c77c8	1.2224054
184	0xbe233fcd	-0.15942307
185	0xbe44c09b	-0.19214098
186	0xbf3a7919	-0.7284103
187	0xbe446d3a	-0.19182292
188	0xbc10f1ff	-0.008846759
189	0xbc09bae1	-0.008406372
190	0xbe903754	-0.28167212
191	0xbf8ca7b9	-1.0988685
192	0xbe6c735f	-0.23090886
193	0xbc9e1940	-0.01929915
194	0xbe16cd23	-0.14726691
195	0xbd667a04	-0.056268707
196	0x3fb2794e	1.3943269
197	0xbdae181b	-0.085006915
198	0xbcee7169	-0.029106813
199	0xbe8abf43	-0.27099046
200	0xbf8db4ef	-1.1070842
201	0xbd5cae64	-0.05387725
202	0xbc918e01	-0.017767908
203	0x3c201ce4	0.009772513
204	0xbbd7c279	-0.0065844622
205	0xbba417df	-0.0050077285
206	0xbc43fefb	-0.011962648
207	0xbd1f6742	-0.038916834
208	0xbde0794d	-0.10960636
209	0xbc95a9dd	-0.018269474
210	0x3ddac945	0.1068292
211	0x3af9e8b2	0.0019066541
212	0x3d83478e	0.06410132
213	0xbe875709	-0.2643359
214	0xbc553f28	-0.013015546
215	0xbe0a6d19	-0.1351818
216	0xbdce4964	-0.10072592
217	0xbe3aac9f	-0.18229912
218	0xbe7ae7f9	-0.24502553
219	0xbe80189b	-0.25018772
220	0xbe8c155b	-0.27360043
221	0xbae4c034	-0.00174523
222	0xbda04d8a	-0.078272894
223	0xbe099596	-0.13435969
224	0x3cd65567	0.02616377
225	0x3948ff3e	0.00019168571
226	0xbe8da665	-0.2766601
227	0xbe047e3c	-0.1293878
228	0xbd57c39a	-0.052676775
229	0xbbe24f64	-0.0069064368
230	0xbdc67ed0	-0.09692156
231	0xbd13fea1	-0.036131505
232	0xbde3cb92	-0.11122812
233	0xbdd51942	-0.10405208
234	0xbea12c85	-0.31479278
235	0xbdf8ee98	-0.12154883
236	0xbde1c928	-0.11024696
237	0xbe1bebfa	-0.15226737
238	0x3f5250a4	0.821543
239	0xbc856108	-0.01628162
240	0x3f8f9b37	1.1219243
241	0xbd905d84	-0.07049087
242	0xbdda28b0	-0.10652292
243	0xbbeca4bb	-0.007221786
244	0xbd8d73fe	-0.069068894
245	0xbe2249f3	-0.15848522
246	0xbc6bf2cc	-0.014401149
247	0xbcb623e3	-0.022233909
248	0xbb61b68e	-0.0034441086
249	0x3cacaf1a	0.021079589
250	0xbbcce4ae	-0.0062528467
251	0x3d96cee8	0.07363683
252	0xbb7d057e	-0.003860801
253	0xbdecb8b5	-0.115586676
254	0xbd3ef8ba	-0.046623923
255	0xbe21a9e5	-0.15787466

bias f4 [6]
0	0x3f1c5086	0.6106037
1	0x3f310f0d	0.6916359
2	0x3f4f27eb	0.80920285
3	0x3f6f5b8e	0.93499076
4	0x3f0a4bc6	0.5402187
5	0x3f0b60ca	0.54444563
